CA_comm/CA_comm/python/models/bilstm/bilstm_cqi.pth (torch, 582266 bytes, 20 tensors)

lstm.weight_ih_l0 f4 [256, 5]
-0.11090569 -0.1279784 0.0374434 0.04287981 -0.05314653 0.08695323 0.05501267 -0.0014481117
-0.003499522 0.01339704 0.05148817 -0.04469088 0.047309816 0.063128375 0.018669175 0.1273175
-0.014704919 0.008994849 0.20654704 -0.016945088 -0.12895566 0.07281916 0.09767792 -0.0078055696
0.05916054 0.11776502 0.10190905 0.20929596 0.07532464 0.12565118 -0.07535091 0.08092544
0.007882532 0.13247299 -0.010680614 0.0044902093 -0.027703747 0.030227846 0.041491184 0.07481702
0.117913336 0.023033626 0.18734115 -0.05368522 0.0990488 0.1790962 0.020399664 0.09597686
0.16797502 0.1388117 -0.009754442 0.17588456 0.15218331 0.017626597 0.0897768 0.09930448
-0.10155508 -0.007496129 0.18952422 0.116299115 0.1764844 -0.10597183 0.024529055 -0.084068574
0.00021374633 0.22656934 0.031678565 -0.011937227 0.019231552 0.15428032 0.0062933373 0.045811087
0.08130551 -0.056224514 0.07207769 -0.04652705 0.0523184 -0.022659237 0.013776341 -0.037369076
-0.06982742 -0.006458594 -0.075250395 -0.055623934 0.08008794 -0.003906303 0.043218844 -0.008605572
0.050904363 0.14729534 0.116022564 0.12633619 0.069024 0.12598345 -0.0055768066 -0.09876176
0.074243635 -0.105423786 0.098370224 -0.122974224 -0.030568426 0.025084767 0.16453305 0.12458142
0.06295805 0.16632739 -0.039125502 -0.024229283 0.022533014 0.118685 0.117863216 -0.019183662
0.046987813 0.15065949 -0.026815863 -0.09499021 0.005954692 0.0738991 -0.093131706 0.06282764
0.08692803 -0.032961827 -0.0552761 0.0632159 0.042061538 0.032973196 0.1647096 0.2102298
0.03563734 0.15867811 -0.010537985 -0.011828236 0.014449211 0.12203562 -0.06856631 0.16964048
0.17340025 -0.04052194 0.13867746 -0.038926136 -0.056527827 -0.016935488 -0.0644509 -0.030384839
-0.08534907 -0.1073537 0.0068206927 0.038192645 0.083770595 0.13210644 0.060667712 0.08719804
0.15366343 0.15900241 0.14347701 0.089437075 -0.023509867 -0.015129602 0.06333364 0.10283623
-0.052390564 0.07736961 0.11623403 0.054549497 0.080269806 -0.0010491373 -0.10886329 -0.03752256
0.10471102 -0.02518901 -0.0726769 0.066191085 -0.071955994 -0.0111629255 -0.043899138 0.15844852
0.11178926 0.16251202 -0.058514006 0.057445057 -0.0668879 0.05210167 0.042613298 0.13719
-0.12836823 0.15364408 0.06032843 0.22233944 0.07209847 0.11599383 0.12632188 0.11327803
0.19772 -0.0002974893 0.22582483 -0.08210767 -0.011666263 0.18515751 0.18488261 0.09204434
0.09725848 0.030232884 0.1063813 0.15032151 0.074248336 0.052325483 -0.05092852 -0.033535965
-0.049833346 -0.08101604 -0.11836758 -0.010350663 -0.05089824 0.070966825 -0.07596467 0.0945605
0.08232195 0.19462113 0.091289416 0.18829201 0.014800718 0.048483394 0.10138268 0.19869754
0.061466806 0.14765991 0.12600702 0.002421112 0.070418805 -0.06678758 -0.14868593 -0.10404804
0.03906354 0.0778591 -0.09397736 0.105158105 0.0056661833 0.13875209 0.18577652 0.06477192
0.12173236 0.16173086 0.08878094 0.07582501 0.24249186 -0.042735808 -0.0003787731 0.12406387
-0.16396025 0.054251704 -0.01759914 0.048389267 0.032362156 -0.005445203 0.05659688 0.014005417
00000000: 8622 e3bd c50c 03be 405e 193d bda2 2f3d
00000010: 2db0 59bd 8914 b23d f754 613d 91ce bdba
00000020: 3d58 65bb 427f 5b3c 42e5 523d c90d 37bd
00000030: f0c7 413d 7349 813d 19f0 983c 855f 023e
00000040: e7ec 70bc 225f 133c 1181 533e 6dd0 8abc
00000050: f40c 04be 3622 953d 5c0b c83d ddc5 ffbb
00000060: 5352 723d c92e f13d b1b5 d03d ae51 563e
00000070: ce43 9a3d b4aa 003e 9451 9abd 3dbc a53d
00000080: bc25 013c 00a7 073e befd 2ebc 9b22 933b
00000090: f8f2 e2bc 63a0 f73c a9f2 293d aa39 993d
000000a0: 8c7c f13d 04b1 bc3c 5cd6 3f3e 09e5 5bbd
000000b0: 19da ca3d ff64 373e 321d a73c 848f c43d
000000c0: a501 2c3e a724 0e3e 18d1 1fbc 151b 343e
000000d0: f1d5 1b3e a765 903c e6dc b73d 2660 cb3d
000000e0: 1cfc cfbd 16a2 f5bb a312 423e 3b2e ee3d
000000f0: 54b8 343e c207 d9bd 28f1 c83c 252c acbd
00000100: 1821 6039 cb01 683e 62c1 013d 5c94 43bc
00000110: 7d8b 9d3c a9fb 1d3e 5738 ce3b 68a4 3b3d
00000120: 8183 a63d ad4b 66bd 789d 933d 2693 3ebd
00000130: d24b 563d dd9f b9bc 2ab6 613c 5110 19bd
00000140: ae01 8fbd 9da2 d3bb e11c 9abd ecd5 63bd
00000150: 2505 a43d 7200 80bb 3e06 313d 63fe 0cbc
00000160: 1881 503d 97d4 163e 3d9d ed3d 465e 013e
00000170: 745c 8d3d ce01 013e a5bd b6bb 9b43 cabd
00000180: 0c0d 983d 6de8 d7bd 5476 c93d e9d9 fbbd
00000190: a36a fabc 927e cd3c 5a7b 283e 8b24 ff3d
000001a0: 26f0 803d ba51 2a3e 1042 20bd 7d7c c6bc
000001b0: 2897 b83c 1f11 f33d 4562 f13d 0e27 9dbc
000001c0: 4b76 403d 7b46 1a3e f1ac dbbc 3a8a c2bd
000001d0: 941f c33b 6958 973d d6bb bebd c7ab 803d
000001e0: 5307 b23d fb02 07bd 3169 62bd 5677 813d
000001f0: b848 2c3d e70e 073d a2a9 283e 7b46 573e
00000200: 76f8 113d 847c 223e 83a7 2cbc 38cb 41bc
00000210: 62bc 6c3c d0ed f93d 7e6c 8cbd 3cb6 2d3e
00000220: d68f 313e 55fa 25bd 7701 0e3e 0371 1fbd
00000230: b989 67bd 4bbc 8abc d5fe 83bd a0e9 f8bc
00000240: 7ecb aebd 42dc dbbd 1e80 df3b e46f 1c3d
00000250: eb8f ab3d e946 073e b57e 783d e394 b23d
00000260: f259 1d3e 87d1 223e a3eb 123e c92a b73d
00000270: c497 c0bc 26e2 77bc 11b5 813d cd9b d23d
00000280: 7d97 56bd f573 9e3d 1b0c ee3d 4b6f 5f3d
00000290: 7f64 a43d 3583 89ba b7f3 debd 42b1 19bd
000002a0: bb72 d63d 2f59 cebc a0d7 94bd 318f 873d
000002b0: aa5d 93bd b4e4 36bc 95cf 33bd 5440 223e
000002c0: c4f1 e43d 8d69 263e 62ac 6fbd 824b 6b3d
000002d0: 86fc 88bd 9068 553d 488b 2e3d 897b 0c3e
000002e0: f672 03be e054 1d3e f21a 773d f3ac 633e
000002f0: 5da8 933d 2c8e ed3d 865a 013e 50fe e73d
00000300: 1d77 4a3e 57f8 9bb9 a03e 673e 1128 a8bd
00000310: db23 3fbc ee99 3d3e de51 3d3e be81 bc3d
00000320: 742f c73d f4aa f73c 70de d93d e2ed 193e
00000330: 830f 983d 3f53 563d 6c9a 50bd 025d 09bd
00000340: 0d1e 4cbd bdeb a5bd b46a f2bd d495 29bc
00000350: ac7a 50bd 0e57 913d 5d93 9bbd efa8 c13d
00000360: 6998 a83d c34a 473e f2f5 ba3d 9fcf 403e
00000370: b67e 723c 8696 463d b9a1 cf3d 5e77 4b3e
00000380: 9ec4 7b3d 2934 173e fc07 013e 85ab 1e3b
00000390: bc37 903d edc7 88bd 2041 18be 2417 d5bd
000003a0: 1701 203d 9874 9f3d 3477 c0bd 225d d73d
000003b0: 64ab b93b 0715 0e3e 333c 3e3e 24a7 843d
000003c0: d14e f93d c69c 253e c8d2 b53d 254a 9b3d
000003d0: c94f 783e be0b 2fbd 1196 c6b9 3315 fe3d
000003e0: 32e5 27be 0937 5e3d 122c 90bc d333 463d
000003f0: 2e8e 043d ac6d b2bb 21d2 673d fa76 653c

lstm.weight_hh_l0 f4 [256, 64]
-0.17576128 -0.051959015 -0.12511888 -0.006573116 0.12556925 -0.047083072 0.07099959 0.0012856964
-0.06762071 0.03517771 -0.1752363 -0.19064093 0.062906936 -0.08346287 -0.11582286 0.08099313
-0.22930318 0.13915755 0.06973884 -0.0995045 -0.15912835 -0.14544007 0.03224623 -0.0037312906
-0.15934269 -0.08697947 -0.23128425 -0.024527045 -0.031567182 -0.058739435 -0.059454996 0.04545205
-0.008869561 -0.16541348 -0.0132911615 0.06016808 -0.021498859 -0.15846267 -0.1116593 -0.13674715
0.17417395 -0.051653028 0.0166371 0.033125628 -0.13052529 -0.07046566 0.19306648 0.099417344
0.11510726 0.065625176 -0.097850904 0.022962423 -0.006499343 -0.03251885 0.010827333 -0.09972699
0.13520092 -0.12393979 0.13986906 0.10539448 -0.16728276 -0.042992074 0.009061208 0.020167843
-0.03463599 0.1225983 -0.0084384605 0.17815167 -0.049241725 -0.10007927 0.10691616 0.062478736
0.046166524 0.13367622 -0.004032373 -0.043628808 -0.013563517 -0.005737042 0.009397926 0.0943762
0.020910881 0.15581933 -0.06641041 -0.08569021 -0.20289263 -0.10842765 -0.24436733 -0.13249344
-0.035497162 -0.19434783 -0.1062596 -0.053373553 0.003329966 0.05769454 -0.056122087 0.058994282
-0.092231 -0.15717633 -0.13082905 0.015545644 -0.17016062 -0.17438056 0.08424718 -0.11124772
-0.06621881 -0.17508587 -0.038427718 0.030659078 -0.07678121 -0.040093843 0.09598185 -0.14200878
0.24541473 0.24339277 -0.2080643 0.25486365 -0.13878703 0.08448031 -0.23078927 -0.06827146
-0.0064278054 -0.083508484 0.043261047 -0.08402306 -0.17897475 0.19417046 0.19857658 0.08369605
-0.14404649 -0.00031807215 0.09595131 -0.04082466 0.040718626 -0.09314102 0.09556844 0.06662986
0.16246898 -0.031855967 -0.1315572 0.043641943 0.12039532 -0.16367275 -0.030588022 0.070979804
-0.03735049 0.09704507 0.20262021 0.038356207 0.015975209 0.05578297 0.036526892 -0.13972697
-0.025462573 -0.04697626 -0.021871472 -0.06753375 -0.06124307 0.010147106 0.02803173 0.050649323
-0.14389956 -0.12632743 -0.06921044 -0.052505698 -0.16150858 0.033269476 0.029209448 0.0104032615
0.033164166 0.03110545 -0.033432126 0.036260482 0.02888329 0.06224867 0.19494104 0.011310582
-0.048980117 0.15678416 -0.17979243 -0.05794623 -0.09135581 0.16923268 0.021968188 -0.08211975
0.05615669 -0.17514475 0.13237704 -0.025723621 -0.08094301 0.08128953 0.14019959 0.062804736
-0.14566629 -0.06832979 -0.008352479 0.019065876 0.010916444 -0.08795685 -0.14759378 -0.0071539353
-0.18921168 0.10047776 -0.021040555 -0.10796003 0.03491325 0.030517928 0.02771074 -0.03428457
0.15445751 -0.08861727 0.06865745 0.011786604 -0.046405707 0.12135958 0.07552499 -0.09323406
-0.09819496 0.042879112 -0.18664145 -0.04176694 -0.07418064 0.084246166 -0.04242899 -0.047518205
-0.12130504 0.03659654 0.08416838 -0.15142901 0.050239846 -0.017661637 0.04169871 0.05438764
0.06568146 0.06907242 0.0059458464 0.06078333 0.024629317 0.16277722 0.03396901 -0.047498874
-0.028446304 -0.03284112 0.11348095 0.033004247 -0.029278595 -0.07147295 0.07782169 -0.0026799147
0.09543641 -0.046753548 -0.09864248 -0.17419238 0.14053607 -0.007770319 0.07377529 0.06695479
00000000: c4fa 33be fad2 54bd 2a1f 00be 4b63 d7bb
00000010: 3a95 003e 2eda 40bd 3c68 913d d084 a83a
00000020: ba7c 8abd 8116 103d 2571 33be 6037 43be
00000030: 5ad5 803d 95ee aabd 8934 edbd badf a53d
00000040: 74ce 6abe 517f 0e3e 3dd3 8e3d 04c9 cbbd
00000050: 8bf2 22be 3eee 14be 9f14 043d ab88 74bb
00000060: bb2a 23be 4b22 b2bd c7d5 6cbe f1ec c8bc
00000070: 974c 01bd c398 70bd 1587 73bd ee2b 3a3d
00000080: a351 11bc 2762 29be 2cc3 59bc ce72 763d
00000090: 601e b0bc 0a44 22be a2ad e4bd 7207 0cbe
000000a0: a85a 323e 2092 53bd 874a 883c bdae 073d
000000b0: 6ca8 05be 4d50 90bd 38b3 453e 529b cb3d
000000c0: 5bbd eb3d 7e66 863d 0e66 c8bd b11b bc3c
000000d0: 71f8 d4bb 7c32 05bd 2065 313c aa3d ccbd
000000e0: 1c72 0a3e 25d4 fdbd d639 0f3e 10d9 d73d
000000f0: 2c4c 2bbe 7518 30bd 7675 143c 0837 a53c
00000100: 78de 0dbd d114 fb3d 7841 0abc 646d 363e
00000110: b1b1 49bd 5cf6 ccbd dcf6 da3d b4e9 7f3d
00000120: 1c19 3d3d 6be2 083e ff21 84bb 1fb4 32bd
00000130: 8339 5ebc ccfd bbbb c2f9 193c 4f48 c13d
00000140: 4c4d ab3c 1a8f 1f3e 2e02 88bd 597e afbd
00000150: 16c3 4fbe 510f debd 6e3b 7abe 5cac 07be
00000160: 7965 11bd 1e03 47be a29e d9bd 3a9e 5abd
00000170: 8f3b 5a3b 1c51 6c3d 46e0 65bd fda3 713d
00000180: 9be3 bcbd d5f2 20be 0df8 05be 28b3 7e3c
00000190: 963e 2ebe d190 32be c989 ac3d d8d5 e3bd
000001a0: ba9d 87bd b649 33be 6266 1dbd bf28 fb3c
000001b0: 783f 9dbd 7139 24bd 2292 c43d c06a 11be
000001c0: 004e 7b3e f43b 793e cf0e 55be 7d7d 823e
000001d0: 301e 0ebe 0304 ad3d 0654 6cbe e8d1 8bbd
000001e0: 57a0 d2bb 7f06 abbd 7f32 313d 4814 acbd
000001f0: 2845 37be 9fd4 463e a957 4b3e d668 ab3d
00000200: ec80 13be ecc2 a6b9 1f82 c43d c237 27bd
00000210: 93c8 263d b8c0 bebd 63b9 c33d 3c75 883d
00000220: 455e 263e 677b 02bd eeb6 06be e5c1 323d
00000230: d291 f63d d499 27be bb93 fabc dc5d 913d
00000240: d4fc 18bd 91bf c63d ac7b 4f3e 661b 1d3d
00000250: 71de 823c af7c 643d 399d 153d 9614 0fbe
00000260: e396 d0bc 2e6a 40bd cd2b b3bc 224f 8abd
00000270: 03da 7abd 0c40 263c cca2 e53c aa75 4f3d
00000280: 685a 13be fa5b 01be 34be 8dbd 3710 57bd
00000290: 8162 25be 9345 083d a748 ef3c 7172 2a3c
000002a0: 26d7 073d dbd0 fe3c 20f0 08bd df85 143d
000002b0: a69c ec3c 76f8 7e3d a09e 473e 0550 393c
000002c0: 609f 48bd 078c 203e 821b 38be 0759 6dbd
000002d0: c118 bbbd 554b 2d3e a1f6 b33c 662e a8bd
000002e0: 8f04 663d 2559 33be d98d 073e 58ba d2bc
000002f0: 73c5 a5bd 207b a63d 7b90 0f3e c59f 803d
00000300: 8b29 15be 7df0 8bbd d6d8 08bc 0a30 9c3c
00000310: e2da 323c b922 b4bd d322 17be 8f6b eabb
00000320: b5c0 41be 49c7 cd3d 3e5d acbc 261a ddbd
00000330: 3201 0f3d bc00 fa3c a201 e33c fa6d 0cbd
00000340: 1c2a 1e3e f97c b5bd 479c 8c3d 9a1c 413c
00000350: e913 3ebd 5f8b f83d d9ac 9a3d 80f1 bebd
00000360: 701a c9bd 02a2 2f3d f01e 3fbe d013 2bbd
00000370: 05ec 97bd 4189 ac3d 05ca 2dbd 73a2 42bd
00000380: c76e f8bd 41e6 153d 7960 ac3d 3510 1bbe
00000390: 4cc8 4d3d 23af 90bc 44cc 2a3d 93c5 5e3d
000003a0: 0084 863d d775 8d3d 60d5 c23b f1f7 783d
000003b0: 6cc3 c93c 12af 263e 1723 0b3d 2e8e 42bd
000003c0: 3908 e9bc 6984 06bd b368 e83d 762f 073d
000003d0: aad9 efbc 6960 92bd fa60 9f3d 82a1 2fbb
000003e0: 2a74 c33d a680 3fbd 1205 cabd 7d5f 32be
000003f0: b0e8 0f3e 299e febb 8017 973d 981f 893d

lstm.bias_ih_l0 f4 [256]
-0.040306095 0.10649103 0.01860265 -0.00074142637 -0.16216393 0.08695228 0.12659518 -0.3076257
0.025481164 0.016231442 0.039793827 -0.122046545 -0.028193828 -0.046484195 0.04988926 0.038216628
0.025915783 -0.031341277 0.04304588 -0.04891424 0.1609158 0.09058571 -0.074486 -0.025663638
-0.07458999 0.12756191 -0.06725522 0.18644823 0.18129091 -0.0334324 0.22880585 0.14948222
0.14086547 -0.0027946692 0.12911126 0.052044097 0.041535348 0.14978938 0.05635692 -0.017222274
0.17367335 0.15341021 0.022510644 0.06804407 -0.025437392 -0.012581746 0.02783206 -0.0032568173
0.097512536 -0.10022355 0.001958773 -0.078509875 0.1431703 0.06434173 0.03666025 -0.00046475162
-0.06856314 -0.19490157 0.049665306 -0.0041644396 0.09593321 -0.09734732 0.033099834 0.18871793
0.107086405 0.0012865986 0.111823164 -0.066282906 -0.14382558 -0.03739553 -0.0038686288 -0.023600364
-0.0838968 0.048109263 0.008989636 0.06606466 0.12736955 0.0043818466 -0.022404153 0.003693959
0.083769195 0.10792997 -0.033477493 -0.077914774 -0.096893124 -0.09734271 0.065070234 0.05757663
0.11926986 0.08970886 -0.0070573757 0.09417121 0.15980665 0.13893387 0.11797673 0.035345234
-0.0049778074 0.10127421 0.07902827 0.06174468 -0.026882635 0.14752288 -0.0925779 0.09314368
-0.049834203 0.1112291 -0.03762233 -0.036035 0.16572532 -0.045148276 0.0040926477 -0.16491188
-0.049426407 -0.13465354 0.14091443 -0.019854367 -0.03534159 0.0834155 -0.06964618 0.18825112
0.024321744 0.045750525 0.003032726 0.0018693006 -0.04892102 -0.015388247 0.047583327 -0.14320278
0.043470275 0.027740836 -0.015585756 -0.03437142 -0.11593196 -0.0020972146 0.022877198 -0.17872721
-0.12660344 0.027821448 0.045195837 0.055365425 -0.015496728 0.10422814 0.023367073 0.001382928
0.011080817 -0.11792356 0.16136947 0.0415807 0.11737209 0.071753524 -0.028815392 -0.16402115
0.10051033 -0.08805306 0.10404512 -0.18439959 0.0407422 -0.0043679187 0.0030181448 -0.01734017
-0.04752299 -0.039136056 0.2529822 0.0880417 0.07299729 -0.1557359 0.13733423 -0.16086602
-0.064570434 -0.05631806 0.15538576 -0.06494927 0.18028656 -0.08874249 -0.031165108 0.09182317
-0.19292316 0.018339928 -0.06912761 -0.122380406 0.031271808 -0.00968942 -0.013832353 0.0597038
0.037503984 -0.07762372 0.117283925 0.07919458 0.15492724 0.052305214 -0.11263752 0.0771144
0.0579405 0.17986292 -0.11391138 0.04855153 0.085186936 0.12317135 0.15038325 0.05529943
0.09080537 0.009131619 0.104252115 0.0033317811 0.0012856135 0.16988385 -0.028816607 0.03315889
0.101783104 0.08931895 0.15930796 0.082991004 0.004878332 0.080221966 0.04207559 0.10620483
0.115147226 -0.15211403 0.09736269 -0.019576956 -0.04353838 -0.06262647 0.13699335 -0.019696258
0.13170554 -0.09986967 0.07364336 0.11937555 0.014150932 0.14653343 0.25543332 0.09345499
-0.033749547 0.045462336 -0.13269831 0.07486419 -0.02551387 0.03503309 0.12789482 0.014253291
0.058069058 -0.022441113 -0.048324674 -0.011335696 0.084703565 -0.0013648641 -0.077529214 0.14043315
0.100850284 0.0482728 0.09915425 -0.122686744 0.048056606 0.07972768 0.22709215 -0.038276453
00000000: 0118 25bd f817 da3d 9664 983c 485c 42ba
00000010: 4d0e 26be 0914 b23d 2ba2 013e 1e81 9dbe
00000020: e0bd d03c cdf7 843c dafe 223d 8af3 f9bd
00000030: bef6 e6bc 3666 3ebd ae58 4c3d 0a89 1c3d
00000040: 564d d43c b65f 00bd e050 303d 4c5a 48bd
00000050: 1dc7 243e 0085 b93d 1e8c 98bd 8d3c d2bc
00000060: a3c2 98bd 979f 023e 1bbd 89bd 49ec 3e3e
00000070: 53a4 393e 6af0 08bd 154c 6a3e de11 193e
00000080: 0a3f 103e c526 37bb be35 043e 312c 553d
00000090: f820 2a3d 6362 193e 84d6 663d ba15 8dbc
000000a0: 6dd7 313e 9117 1d3e 3e68 b83c b05a 8b3d
000000b0: 1462 d0bc ab23 4ebc 0f00 e43c 5470 55bb
000000c0: a7b4 c73d 0142 cdbd c25e 003b c9c9 a0bd
000000d0: 3c9b 123e 99c5 833d 0f29 163d e8a9 f3b9
000000e0: d56a 8cbd 4794 47be d96d 4b3d da75 88bb
000000f0: a178 c43d 085e c7bd b193 073d 463f 413e
00000100: 1e50 db3d 16a3 a83a 8b03 e53d 55bf 87bd
00000110: 0347 13be 0e2c 19bd d288 7dbb 8d55 c1bc
00000120: 16d2 abbd 380e 453d 4449 133c e94c 873d
00000130: 2a6d 023e 9895 8f3b ea88 b7bc 5916 723b
00000140: 2f8f ab3d 630a dd3d b21f 09bd c891 9fbd
00000150: e76f c6bd 9d5b c7bd 8b43 853d 79d5 6b3d
00000160: c243 f43d 47b9 b73d 8f41 e7bb d6dc c03d
00000170: 5ba4 233e ae44 0e3e c99d f13d 2ac6 103d
00000180: e01c a3bb da68 cf3d 93d9 a13d fde7 7c3d
00000190: f938 dcbc 3d10 173e 7b99 bdbd 1dc2 be3d
000001a0: f31e 4cbd 15cc e33d df19 1abd 7099 13bd
000001b0: e6b3 293e 66ed 38bd 9e1b 863b a9de 28be
000001c0: 5873 4abd 9ee2 09be df4b 103e a0a5 a2bc
000001d0: 58c2 10bd bfd5 aa3d a8a2 8ebd e7c4 403e
000001e0: 653e c73c e764 3b3d b3c0 463b 5203 f53a
000001f0: 6861 48bd fc1e 7cbc bce6 423d c0a3 12be
00000200: e30d 323d c040 e33c 665b 7fbc 0cc9 0cbd
00000210: bc6d edbd 6c71 09bb f668 bb3c 4404 37be
00000220: 55a4 01be cee9 e33c 451f 393d dbc6 623d
00000230: fde5 7dbc 9075 d53d 4e6c bf3c 5d43 b53a
00000240: 518c 353c e881 f1bd 0a3e 253e 8650 2a3d
00000250: c760 f03d 83f3 923d 420e ecbc 29f5 27be
00000260: 5cd8 cd3d 2a55 b4bd 9c15 d53d 3fd3 3cbe
00000270: 4be1 263d c220 8fbb 11cc 453b f90c 8ebc
00000280: 77a7 42bd 214d 20bd e286 813e 354f b43d
00000290: 9a7f 953d 3b79 1fbe 58a1 0c3e 10ba 24be
000002a0: 813d 84bd c4ad 66bd 721d 1f3e 1f04 85bd
000002b0: 0a9d 383e 9fbe b5bd f84d ffbc c90d bc3d
000002c0: a68d 45be 9e3d 963c c792 8dbd 94a2 fabd
000002d0: de16 003d 60c0 1ebc 18a1 62bc f98b 743d
000002e0: c79d 193d 2ff9 9ebd 8e32 f03d c530 a23d
000002f0: 3fa5 1e3e fe3d 563d 80ae e6bd 28ee 9d3d
00000300: 0553 6d3d fc2d 383e 5f4a e9bd f8dd 463d
00000310: 7d76 ae3d 4341 fc3d 11fe 193e a881 623d
00000320: 2af8 b93d c99c 153c 2282 d53d 035a 5a3b
00000330: 0882 a83a 08f6 2d3e ce10 ecbc 9ed1 073d
00000340: a973 d03d dbec b63d a021 233e 30f7 a93d
00000350: 6ada 9f3b 6a4b a43d 7457 2c3d eb81 d93d
00000360: 4fd2 eb3d c8c3 1bbe 1766 c73d da5f a0bc
00000370: 4d55 32bd 4f42 80bd fc47 0c3e 0c5a a1bc
00000380: d1dd 063e 7888 ccbd 54d2 963d 2b7b f43d
00000390: 50d9 673c dc0c 163e 28c8 823e 5465 bf3d
000003a0: f73c 0abd b736 3a3d 11e2 07be 6552 993d
000003b0: 7702 d1bc db7e 0f3d dcf6 023e a386 693c
000003c0: d2d9 6d3d 6dd6 b7bc 18f0 45bd 5bb9 39bc
000003d0: 1079 ad3d 3de5 b2ba a3c7 9ebd b5cd 0f3e
000003e0: 988a ce3d b3b9 453d 6211 cb3d 3043 fbbd
000003f0: 01d7 443d 4448 a33d d88a 683e c5c7 1cbd

lstm.bias_hh_l0 f4 [256]
0.10967934 0.11533351 0.07411035 -0.09327557 -0.17031655 0.0708 0.15811387 -0.14119494
0.21366185 0.143223 0.15329716 -0.063572675 0.07210136 -0.007291562 -0.08851675 -0.09885996
0.035462387 0.01860716 0.12932196 0.110793926 0.104247324 0.10832491 -0.032589685 0.07702135
-0.07253943 0.23940139 -0.15700346 0.081112266 0.1670941 -0.0019149756 0.12933737 0.11577027
-0.050511178 0.058595613 -0.022377398 0.06546404 -0.14360346 -0.010208779 0.20077933 0.012109254
0.027040327 0.06946648 0.18726364 0.052181 0.14776699 0.026246428 0.11391678 -0.062709615
0.06766051 -0.0076161893 -0.07467852 0.1007296 0.092023745 0.019632695 -0.07083483 -0.0051897834
0.009624848 -0.0628918 -0.059320193 0.01471956 0.04596858 -0.02943933 0.03060572 0.1953191
0.030316057 0.07523911 -0.03714138 0.11636354 0.011750959 0.054735776 -0.047924705 0.1008567
0.06913172 -0.03097456 0.04122365 0.057988778 -0.061143354 -0.11797461 0.0134111205 0.07160594
-0.04215371 -0.095669135 0.05925342 -0.05578402 0.10465515 0.09223759 -0.10736777 0.065879494
0.09310904 -0.06906352 0.0012115255 -0.004432023 0.061008446 0.049845207 0.086043686 0.072014906
-0.1210194 -0.022237355 0.031553756 -0.09846058 -0.03515443 -0.0801125 -0.12628429 -0.0035570234
0.011891036 -0.05435003 -0.043531623 0.10316121 0.0982923 0.062302977 0.08962454 0.008346818
-0.004797394 0.025294563 -0.016537737 0.029849706 -0.08328834 0.11117771 0.087875396 0.03845194
0.16900827 0.0033247252 0.15960765 0.09145595 -0.06499056 0.0906732 0.015008558 -0.07325738
0.08636958 -0.18423471 0.16223857 -0.060331825 -0.023768079 0.108725674 -0.050319932 -0.1677706
-0.104132414 -0.0017799671 0.049712446 -0.03038525 -0.016817361 0.053391706 0.15618901 -0.09724877
-0.09128513 0.020777712 0.12760584 -0.07762031 0.09228178 0.040122416 0.16673253 -0.058656897
0.049916275 -0.09332171 -0.038283434 0.02508428 0.16082084 -0.07529625 -0.019558268 0.03739511
-0.04126045 0.058727715 0.25845525 0.026115235 0.028036969 0.05969798 -0.008055702 -0.12726271
0.11000657 0.027773278 0.1665389 -0.14571258 0.061889052 -0.09206741 0.012164796 8.854437e-05
0.04616891 0.13462271 0.10829259 0.031278864 0.028700877 -0.009601533 -0.05301126 0.056383394
-0.017981438 -0.10459926 0.025721045 -0.0359542 0.030257227 -0.0895696 0.045098383 -0.12520668
0.07408941 0.1046216 -0.015942857 0.011754151 -0.0683335 0.051168833 -0.0016079486 -0.0069176843
0.08673481 0.05932841 0.06827188 0.13109982 -0.13184348 0.044827487 0.07539087 0.06597481
-0.051808476 0.04190435 0.06714855 0.007872944 0.06939779 0.14694951 0.15296175 -0.005662223
0.04334284 -0.020359956 0.17302234 0.09582058 -0.025810651 0.12204348 0.11149573 0.0789125
0.13522531 0.10411675 -0.12352101 0.045486532 -0.044709258 0.05903902 0.17161736 -0.0013964166
0.13196574 0.040019557 -0.028487936 0.107018754 0.1315113 -0.012334886 0.10108213 -0.07061561
0.07922157 -0.11559401 0.11803866 0.04720956 0.0065352027 -0.033933897 -0.09901972 -0.020068344
-0.009307046 0.20202616 -0.11908 0.012048584 0.031452976 0.21060565 0.020371217 0.1272789
00000000: 909f e03d fa33 ec3d 2bc7 973d 4307 bfbd
00000010: 7667 2ebe 97ff 903d 9ae8 213e 6895 10be
00000020: 2cca 5a3e 0da9 123e eef9 1c3e 6432 82bd
00000030: e1a9 933d 0eee eebb 4548 b5bd 1777 cabd
00000040: 0241 113d 0b6e 983c fa6c 043e ede7 e23d
00000050: 9f7f d53d 73d9 dd3d c37c 05bd 5fbd 9d3d
00000060: 8d8f 94bd a325 753e 84c5 20be 301e a63d
00000070: b71a 2b3e ebff faba 0471 043e f718 ed3d
00000080: cfe4 4ebd f401 703d ce50 b7bc 0312 863d
00000090: c90c 13be b942 27bc 1999 4d3e e465 463c
000000a0: ad83 dd3c 7144 8e3d 0ac2 3f3e bfbb 553d
000000b0: 3b50 173e c002 d73c 334d e93d e66d 80bd
000000c0: 9891 8a3d 3a91 f9bb 0df1 98bd 524b ce3d
000000d0: f276 bc3d bfd4 a03c da11 91bd 0f0f aabb
000000e0: 8ab1 1d3c 6bcd 80bd bbf9 72bd 4f2a 713c
000000f0: 8d49 3c3d c02a f1bc d9b8 fa3c bb01 483e
00000100: 6159 f83c f616 9a3d 8f21 18bd 0250 ee3d
00000110: 1887 403c 9f32 603d b24c 44bd f58d ce3d
00000120: ee94 8d3d 5cbe fdbc 21da 283d a485 6d3d
00000130: 7471 7abd ac9c f1bd 51ba 5b3c 23a6 923d
00000140: 5ea9 2cbd 2eee c3bd b7b3 723d c97d 64bd
00000150: 7055 d63d 10e7 bc3d a2e3 dbbd d4eb 863d
00000160: f4af be3d 2d71 8dbd 0dcc 9e3a 813a 91bb
00000170: fee3 793d 7d2a 4c3d ac37 b03d 8d7c 933d
00000180: 05d9 f7bd 1d2b b6bc 833e 013d b3a5 c9bd
00000190: 17fe 0fbd 0612 a4bd ab50 01be f31c 69bb
000001a0: 9fd2 423c 239e 5ebd 374e 32bd 2f46 d33d
000001b0: 794d c93d 6831 7f3d 128d b73d 18c1 083c
000001c0: 7533 9dbb 8b36 cf3c 267a 87bc 5f87 f43c
000001d0: 1493 aabd 24b1 e33d 04f8 b33d c87f 1d3d
000001e0: 8110 2d3e a2e3 593b 3070 233e 424d bb3d
000001f0: c519 85bd dfb2 b93d 74e6 753c f707 96bd
00000200: 89e2 b03d 06a8 3cbe de21 263e 811e 77bd
00000210: 46b5 c2bc 91ab de3d 461c 4ebd 0ecc 2bbe
00000220: 6043 d5bd c94d e9ba 479f 4b3d 7dea f8bc
00000230: 90c4 89bc 43b1 5a3d 03f0 1f3e 5d2a c7bd
00000240: b3f3 babd 0536 aa3c 1bab 023e 66f7 9ebd
00000250: 3bfe bc3d 6757 243d efbb 2a3e 3742 70bd
00000260: 0275 4c3d 741f bfbd 17cf 1cbd 8c7d cd3c
00000270: 38ae 243e ec34 9abd a938 a0bc 9d2b 193d
00000280: b800 29bd 798c 703d 3f54 843e 9eef d53c
00000290: c9ad e53c de85 743d 10fc 03bc 2851 02be
000002a0: 204b e13d c984 e33c 2c89 2a3e ae35 15be
000002b0: 607f 7d3d d78d bcbd da4e 473c e6b0 b938
000002c0: 9c1b 3d3d 89da 093e 81c8 dd3d 441e 003d
000002d0: 1a1e eb3c c04f 1dbc 5622 59bd 46f2 663d
000002e0: cf4d 93bc 2338 d6bd f1b4 d23c b644 13bd
000002f0: 01de f73c 4470 b7bd 15b9 383d 2e36 00be
00000300: 30bc 973d d943 d63d 989a 82bc 7c94 403c
00000310: 6ff2 8bbd 6996 513d cdc1 d2ba bead e2bb
00000320: 05a2 b13d 5902 733d 21d2 8b3d 083f 063e
00000330: fa01 07be 079d 373d 8766 9a3d cd1d 873d
00000340: 2035 54bd e5a3 2b3d 2e85 893d 85fd 003c
00000350: 6e20 8e3d ef79 163e 01a2 1c3e 2b8a b9bb
00000360: 4388 313d ecc9 a6bc c52c 313e 953d c43d
00000370: dc70 d3bc eff1 f93d e057 e43d e09c a13d
00000380: 8178 0a3e 2a3b d53d 95f8 fcbd 1650 3a3d
00000390: 0e21 37bd e6d2 713d 76bc 2f3e f707 b7ba
000003a0: 0722 073e 8ceb 233d 885f e9bc a62c db3d
000003b0: e6aa 063e 4318 4abc 2604 cf3d eb9e 90bd
000003c0: eb3e a23d 8dbc ecbd 41be f13d d05e 413d
000003d0: 4125 d63b 45fe 0abd daca cabd 5e66 a4bc
000003e0: 957c 18bc f2df 4e3e 37e0 f3bd 6d67 453c
000003f0: d6d4 003d 02a9 573e 8ae1 a63c 6655 023e

lstm.weight_ih_l0_reverse f4 [256, 5]
0.07471976 0.06449098 0.048431274 0.11290047 0.23780704 0.03392834 0.07876226 -0.028874652
0.04637847 0.08077429 -0.037441853 0.14243388 0.1375927 0.045446675 0.022570347 0.111876115
0.011569997 0.17121626 0.026136333 0.112920806 0.18468362 0.06472143 0.20559922 0.12774976
0.19704227 0.052300148 0.042063303 0.047005847 -0.027527524 -0.012003648 0.11421231 -0.015885191
-0.0022750117 0.027282907 0.0726528 -0.008399167 -0.018581493 0.0010393359 -0.06580272 0.07179944
0.030387748 0.05888102 0.038613714 -0.041638654 0.07451692 0.009177832 -0.0153637985 0.13159731
-0.0064912313 0.062517285 0.15976676 -0.023669818 0.041876506 -0.052166507 -0.051565997 0.037364766
0.21210971 0.1357757 0.08558653 -0.04183357 0.13096227 0.11113905 0.10118165 0.1253778
0.1263238 0.020757334 0.10733185 -0.0043901424 -0.05588694 0.066991165 -0.026554726 0.19193938
-0.0701817 0.0851048 0.03220143 0.07565014 -0.027318934 -0.05393146 0.04298172 0.11072874
-0.07060468 0.18000917 0.14940311 0.0155396825 0.11609381 0.0016510254 0.11690865 -0.02640743
0.04225877 0.051983617 0.026632812 -0.0942967 0.13918914 0.045479782 0.05509819 0.023736248
0.0053863833 0.045521725 0.11366107 -0.036241226 0.023337997 -0.046963245 0.12880225 0.08102958
0.06854948 0.06726973 -0.12828039 0.07334646 -0.05173511 0.143951 -0.10972134 -0.04275774
-0.03524746 -0.01536432 -0.08191543 0.034371525 0.14018677 0.023438385 0.004239888 0.10835151
-0.014716914 0.026939947 -0.06101237 0.11025051 -0.109648265 0.017015044 0.05104916 0.00050631276
0.09056379 0.020589955 0.20131949 0.06431981 -0.080308355 0.12123361 0.038839534 0.08284899
0.07450068 0.0024729169 0.04966911 0.097091496 0.008432037 0.053502012 -0.0069051716 -0.008616181
0.042923175 -0.038038563 0.11723377 0.010844489 0.006853098 0.056145113 -0.010245034 0.052886754
0.034720164 0.07093582 0.00096044305 -0.027010463 0.11387271 0.1180259 -0.049726997 0.02685881
0.049382787 0.06324452 0.07856986 0.043720305 0.068969555 0.06896713 0.20056887 0.106553406
0.21579455 -0.037546936 0.054805707 -0.08558106 -0.025565406 0.04180483 0.1315087 0.042570017
-0.09382801 -0.08841967 0.012273803 -0.1160349 0.1057936 -0.0017764705 -0.013089426 0.103592746
-0.058761146 0.01963619 0.059885968 0.052689433 -0.034285594 0.1629855 0.05960656 0.09804372
-0.008445158 0.094862126 0.085440196 -0.073337026 -0.043730374 0.0803227 0.16144864 0.07890448
0.058622807 0.14836496 0.10277894 0.030270347 0.043303825 0.06606309 0.13135183 0.09962549
0.16985531 0.13295984 0.036575884 0.07865245 0.0014308355 -0.00517051 0.09828243 0.10328129
-0.076566786 0.103503086 0.1801166 -0.02562412 0.107163794 0.028236004 0.069522925 -0.031793036
0.05386536 0.08026546 0.09152492 0.08801525 0.08145065 0.05207601 0.013691821 -0.010242719
0.103527546 0.021179961 0.10853579 0.25682545 0.10064538 -0.05201343 -0.008027065 0.20134541
-0.077299386 0.1459915 0.12941718 -0.027968086 -0.0257879 0.17692098 0.038526535 0.04083549
-0.0709996 -0.04549605 0.01497365 -0.005004044 0.16343723 0.045404598 0.014463127 -0.041141428
00000000: ac06 993d d913 843d df5f 463d 5d38 e73d
00000010: b083 733e 71f8 0a3d 1c4e a13d 898a ecbc
00000020: 5af7 3d3d fe6c a53d a15c 19bd 30da 113e
00000030: 1ae5 0c3e 4b26 3a3d 73e5 b83c 4e1f e53d
00000040: 1690 3d3c 5153 2f3e dd1b d63c 0643 e73d
00000050: b41d 3d3e ab8c 843d 9a88 523e d5d0 023e
00000060: 73c5 493e ae38 563d 924a 2c3d 3489 403d
00000070: 6781 e1bc f3aa 44bc 25e8 e93d a921 82bc
00000080: 5d18 15bb 6780 df3c feca 943d a99c 09bc
00000090: 3738 98bc 533a 883a 94c3 86bd 960b 933d
000000a0: baef f83c 392d 713d 6a29 1e3d 4b8d 2abd
000000b0: 549c 983d 9e5e 163c 71b8 7bbc 72c1 063e
000000c0: 65b4 d4bb 1009 803d e699 233e 35e7 c1bc
000000d0: b386 2b3d 8cac 55bd de36 53bd cc0b 193d
000000e0: 4a33 593e c908 0b3e fe47 af3d ad59 2bbd
000000f0: f91a 063e df9c e33d 5338 cf3d 0a63 003e
00000100: 075b 013e 490b aa3c cdd0 db3d 2fdb 8fbb
00000110: b4e9 64bd aa32 893d 4c89 d9bc c28b 443e
00000120: 6cbb 8fbd 6d4b ae3d a6e5 033d 76ee 9a3d
00000130: f5cb dfbc 3ce7 5cbd 9a0d 303d c0c5 e23d
00000140: 3099 90bd 5354 383e 21fd 183e 279a 7e3c
00000150: 97c2 ed3d 3867 d83a cd6d ef3d 6554 d8bc
00000160: 8817 2d3d c6ec 543d 0e2d da3c a11e c1bd
00000170: 9987 0e3e 0249 3a3d a4ae 613d 8572 c23c
00000180: 4280 b03b fd74 3a3d 23c7 e83d ae71 14bd
00000190: 542f bf3c 885c 40bd bde4 033e d6f2 a53d
000001a0: ab63 8c3d b6c4 893d ef5b 03be ab36 963d
000001b0: 32e8 53bd e467 133e 95b5 e0bd bd22 2fbd
000001c0: a45f 10bd a1ba 7bbc 47c3 a7bd 28c9 0c3d
000001d0: 1f8d 0f3e db01 c03c c2ee 8a3b 65e7 dd3d
000001e0: 361f 71bc 2ab1 dc3c 1be8 79bd 05cb e13d
000001f0: 458f e0bd 2263 8b3c ed18 513d 13ba 043a
00000200: 8279 b93d 44ac a83c b226 4e3e 1bba 833d
00000210: b578 a4bd 5449 f83d 3416 1f3d bbac a93d
00000220: d093 983d a910 223b d671 4b3d e8d7 c63d
00000230: 8726 0a3c ed24 5b3d c744 e2bb e22a 0dbc
00000240: 36d0 2f3d 53ce 1bbd 4218 f03d 15ad 313c
00000250: f48f e03b 6bf8 653d c9da 27bc c89f 583d
00000260: bb36 0e3d cd46 913d 3ec6 7b3a 0c45 ddbc
00000270: 1836 e93d 90b7 f13d 89ae 4bbd 0207 dc3c
00000280: 9b45 4a3d 5886 813d 3ce9 a03d 1014 333d
00000290: e93f 8d3d a33e 8d3d ed61 4d3e ac38 da3d
000002a0: 3ff9 5c3e d1ca 19bd f37b 603d 1f45 afbd
000002b0: 8b6e d1bc 8b3b 2b3d 37aa 063e e65d 2e3d
000002c0: e628 c0bd 5f15 b5bd 1018 493c b5a3 edbd
000002d0: 51aa d83d 75d8 e8ba 0875 56bc 6f28 d43d
000002e0: 87af 70bd 13dc a03c fd4a 753d e0d0 573d
000002f0: 0d6f 0cbd ace5 263e 0226 743d 25cb c83d
00000300: 8f5d 0abc 1347 c23d 45fb ae3d b931 96bd
00000310: 9f1e 33bd 3a80 a43d cb52 253e ac98 a13d
00000320: 781e 703d fcec 173e c47d d23d 85f9 f73c
00000330: 5a5f 313d 164c 873d 1881 063e 7308 cc3d
00000340: 8dee 2d3e a026 083e 98d0 153d 8914 a13d
00000350: df8a bb3a 626d a9bb 4c48 c93d 2485 d33d
00000360: 0ccf 9cbd 6df9 d33d 7c70 383e ade9 d1bc
00000370: b178 db3d 314f e73c 0962 8e3d 6a39 02bd
00000380: eca1 5c3d 3862 a43d 6b71 bb3d 5741 b43d
00000390: 99cf a63d a74d 553d a953 603c 14d1 27bc
000003a0: 4006 d43d 9981 ad3c 0348 de3d a07e 833e
000003b0: 2a1f ce3d 090c 55bd f383 03bc 7e2d 4e3e
000003c0: 244f 9ebd cc7e 153e f085 043e 541d e5bc
000003d0: 2541 d3bc c62a 353e 00ce 1d3d 1d43 273d
000003e0: 3d68 91bd 115a 3abd 0a54 753c f7f8 a3bb
000003f0: 175c 273e 2cfa 393d c0f6 6c3c ea83 28bd

lstm.weight_hh_l0_reverse f4 [256, 64]
0.11525154 0.16767015 0.06929163 0.0110070165 0.12238488 0.010302659 0.22784081 0.09611095
0.07214208 -0.0980966 0.1992932 0.016533073 0.040168934 -0.021844594 0.010317764 0.045070097
-0.020015007 -0.14548822 0.02074953 -0.14619356 -0.12475965 0.16016346 -0.07038148 0.051740024
-0.08514269 0.05389101 0.08974951 0.17617466 -0.15125191 -0.08370194 0.037600443 -0.018702934
-0.008492394 0.09843952 0.04094972 0.11471936 -0.11383933 0.016240202 -0.049875595 -0.015068774
-0.1457213 0.030785952 -0.00849845 -0.076311335 0.11148721 0.046391092 0.033029243 0.046689108
-0.084271595 0.12313811 0.15052822 0.020126566 0.2652839 -0.023687022 0.09557786 0.07614081
0.03392928 -0.1647044 -0.18086687 -0.062390827 0.14430283 0.11872188 0.03935793 -0.08818874
0.020642871 0.06185945 -0.07891571 -0.15183511 0.1288076 -0.036875743 -0.20747101 0.18059497
0.10746284 -0.36793822 -0.028875208 -0.2742129 -0.321587 -0.15996936 -0.04094095 0.039289366
0.1948846 -0.114102334 -0.10959184 -0.03118732 -0.07555901 -0.0713932 -0.17913434 -0.076607436
-0.062283363 -0.1926987 -0.10238313 -0.122882545 0.12078814 -0.19317195 -0.07789388 0.14185525
0.14273304 0.2531225 0.02669748 -0.22507155 0.06747715 -0.085562915 0.25525334 0.03229545
0.05693813 -0.1802334 -0.031275235 0.21367346 0.1727985 0.04581631 0.020902693 -0.23782621
0.14917327 -0.10680301 -0.05239624 -0.047773372 0.2156727 -0.036760908 0.0734951 0.041485876
0.12088685 0.21040395 -0.037290465 0.070896134 -0.23192593 -0.03901236 0.08774366 -0.2846363
0.12446207 -0.16562943 -0.051703557 -0.046082128 0.19552897 0.08021021 0.0026685214 0.15003577
-0.0596224 -0.15404727 -0.23401092 0.027920634 0.052628662 0.054729495 -0.13611035 -0.049845718
-0.1993649 -0.10914949 0.15163623 0.20202503 0.07686984 -0.18434589 -0.20785956 -0.11072991
-0.06846172 -0.1641797 0.15103434 0.06896493 0.10151952 -0.18654194 -0.2365718 -0.14638613
-0.15914075 0.042574022 0.16467816 0.017414285 0.18303554 0.042487103 0.16979346 -0.14595746
0.18841714 -0.098119736 -0.103256434 0.029882697 0.13232926 0.029247798 -0.24590339 -0.10067374
-0.013550935 -0.047089666 -0.20015925 -0.061603077 0.091748916 0.09993744 0.0036867298 0.18030383
-0.0016333668 0.20720233 -0.07964971 0.11471633 0.0017928082 0.20305857 0.2301439 -0.0035662057
0.07201661 -0.088211276 0.23133352 0.032206286 0.19609173 0.023510477 -0.030920103 0.22810997
0.010933374 -0.15222341 0.24393325 0.00053990143 0.043019544 -0.15264192 -0.058874846 -0.123693265
-0.015946697 0.020050658 -0.14624053 -0.120128565 -0.041659214 -0.014241497 -0.23852922 0.09856213
-0.062491257 0.0020702982 0.20957185 -0.13615513 -0.059014253 -0.13907318 0.10038623 0.16852453
-0.21558422 0.051275495 0.07131602 -0.18160304 0.03985704 -0.10678731 0.106938176 -0.1839842
-0.06144257 0.12027105 -0.07026499 0.045766328 0.19826214 -0.05930372 0.08054889 -0.015037088
-0.086044565 0.08613878 0.08215516 -0.032830536 0.19365059 -0.1581004 0.16832156 0.22189523
0.12084433 0.09992085 0.13395344 -0.019120703 0.026228448 0.065503925 0.028313935 -0.0698501
00000000: 0009 ec3d b9b1 2b3e c5e8 8d3d c656 343c
00000010: eda4 fa3d 7ccc 283c 1a4f 693e d1d5 c43d
00000020: 3abf 933d dfe6 c8bd 8413 4c3e 5e70 873c
00000030: 2e88 243d 6ff3 b2bc d70b 293c 6c9b 383d
00000040: 83f6 a3bc ddfa 14be ebfa a93c c4b3 15be
00000050: fd81 ffbd e401 243e 2a24 90bd 59ed 533d
00000060: 4a5f aebd d2bc 5c3d 97ce b73d 2167 343e
00000070: c8e1 1abe ec6b abbd ec02 1a3d e536 99bc
00000080: af23 0bbc a99a c93d e5ba 273d fcf1 ea3d
00000090: 9824 e9bd 2c0a 853c 5a4a 4cbd 05e3 76bc
000000a0: f737 15be d232 fc3c 153d 0bbc 1e49 9cbd
000000b0: 6853 e43d 9604 3e3d ac49 073d 143d 3f3d
000000c0: 9696 acbd d52f fc3d 1224 1a3e 78e0 a43c
000000d0: 4bd3 873e 490b c2bc 53be c33d b7ef 9b3d
000000e0: 6ef9 0a3d 45a8 28be 2a35 39be 868d 7fbd
000000f0: 1fc4 133e 7524 f33d c835 213d 4c9c b4bd
00000100: 3d1b a93c 5660 7d3d 8f9e a1bd aa7a 1bbe
00000110: 24e6 033e 050b 17bd 4873 54be e3ed 383e
00000120: 7a15 dc3d 6662 bcbe b38b ecbc a265 8cbe
00000130: 0da7 a4be 02cf 23be b3b1 27bd e3ed 203d
00000140: d48f 473e 7cae e9bd b071 e0bd 8d7c ffbc
00000150: afbe 9abd 9936 92bd fe6e 37be 5ce4 9cbd
00000160: d71c 7fbd cf52 45be 3fae d1bd d8a9 fbbd
00000170: c65f f73d dece 45be d486 9fbd 8142 113e
00000180: 9c28 123e 4699 813e acb4 da3c 2879 66be
00000190: 7631 8a3d 9c3b afbd 91b0 823e 3c48 043d
000001a0: f537 693d 1b8f 38be 761a 00bd 37cd 5a3e
000001b0: 17f2 303e e2a9 3b3d 203c ab3c b788 73be
000001c0: e1c0 183e 89bb dabd 719d 56bd 03ae 43bd
000001d0: 4ed9 5c3e 9b92 16bd 9984 963d 18ed 293d
000001e0: 8693 f73d 2274 573e e3bd 18bd fe31 913d
000001f0: fe7d 6dbe 6dcb 1fbd f3b2 b33d d9bb 91be
00000200: f8e5 fe3d c39a 29be 1cc7 53bd 9dc0 3cbd
00000210: bf38 483e 4045 a43d 5ce2 2e3b faa2 193e
00000220: 9e36 74bd 91be 1dbe 8fa0 6fbe d0b9 e43c
00000230: 2791 573d 092c 603d 8360 0bbe 062b 4cbd
00000240: 5026 4cbe c589 dfbd 8746 1b3e a6df 4e3e
00000250: ef6d 9d3d 2bc5 3cbe 23d9 54be 5dc6 e2bd
00000260: a935 8cbd b91e 28be bfa8 1a3e 7c3d 8d3d
00000270: 77e9 cf3d da04 3fbe e13f 72be 3fe6 15be
00000280: cbf5 22be 1962 2e3d 64a1 283e 67a8 8e3c
00000290: ab6d 3b3e f506 2e3d 56de 2d3e df75 15be
000002a0: 6cf0 403e 00f3 c8bd 1c78 d3bd 8fcc f43c
000002b0: 5281 073e 1499 ef3c 19ce 7bbe 092e cebd
000002c0: be04 5ebc 18e1 40bd 8cf6 4cbe 8253 7cbd
000002d0: dbe6 bb3d 00ac cc3d 109d 713b 91a1 383e
000002e0: b216 d6ba d92c 543e 631f a3bd 65f0 ea3d
000002f0: a9fc ea3a 96ee 4f3e d8aa 6b3e 01b7 69bb
00000300: 727d 933d 1da8 b4bd b2e2 6c3e bdea 033d
00000310: 45cc 483e 0b99 c03c 284c fdbc a995 693e
00000320: e521 333c 74e0 1bbe a3c9 793e 2c88 0d3a
00000330: 4335 303d 2a4e 1cbe c026 71bd e552 fdbd
00000340: a6a2 82bc 4741 a43c 14c0 15be f705 f6bd
00000350: daa2 2abd 2b55 69bc 0141 74be f1da c93d
00000360: d5f6 7fbd d7ad 073b 019a 563e 406c 0bbe
00000370: eeb8 71bd 3369 0ebe 4c97 cd3d b291 2c3e
00000380: 1cc2 5cbe 4106 523d 220e 923d 26f6 39be
00000390: 2341 233d 4eb3 dabd 6702 db3d 5b66 3cbe
000003a0: 34ab 7bbd ab50 f63d 17e7 8fbd 7975 3b3d
000003b0: 3b05 4b3e 75e8 72bd d1f6 a43d 1e5e 76bc
000003c0: 2238 b0bd 8769 b03d f740 a83d 5079 06bd
000003d0: 574c 463e 12e5 21be 7d5c 2c3e 8138 633e
000003e0: 3b7d f73d 4da3 cc3d 172b 093e 05a3 9cbc
000003f0: 0bdd d63c ec26 863d a0f2 e73c 920d 8fbd

lstm.bias_ih_l0_reverse f4 [256]
0.23760493 0.025971435 -0.065000415 -0.046153117 0.16200404 0.07460533 0.015427223 0.03965074
-0.068975605 0.10103567 -0.15155138 0.018880252 -0.07392147 0.044676844 -0.05440943 -0.08138857
0.057925586 0.06891885 0.08826068 -0.04322052 -0.008309487 -0.08440022 -0.009694982 -0.0040578977
0.01622456 0.13120224 0.1053863 0.09603833 -0.04198923 0.034955956 0.15725899 -0.077070855
0.10039271 0.09272851 -0.10347891 0.10135027 -0.0270212 -0.006016137 -0.017269725 0.073312074
0.12150983 0.2882344 -0.022887275 0.034955025 0.19071284 -0.10118638 -0.13519607 -0.035166234
-0.14280088 0.077028714 0.0054271864 0.14236121 0.045945078 -0.13601385 0.16485894 -0.060185395
-0.026749559 0.08894463 0.090497166 -0.123512715 -0.05650384 0.13597524 0.0715889 0.06631436
0.22190258 0.011823986 -0.035023253 0.08137833 0.12672614 -0.039468404 0.08297192 0.08470233
0.22314906 -0.056909624 -0.07723407 0.091990165 0.18397535 0.011898828 0.01591512 0.01880478
-0.05516891 0.097251184 -0.098860934 -0.068525255 0.08033965 -0.04737498 0.1701827 0.14027376
0.015572008 -0.08816006 0.025037054 -0.040257465 -0.0065351985 0.104480766 0.059516806 0.04821895
-0.03316389 -0.07258887 0.07718605 -0.009494511 0.04930802 0.102857575 -0.09634504 -0.045799486
0.013770924 0.080630094 0.12239567 0.019655544 0.050543725 -0.040235553 0.1561778 0.1640274
0.14800777 0.1064162 0.14106333 0.011357838 -0.05894612 -0.023512809 0.14115414 0.07812053
0.02198131 0.03056326 0.03474141 -0.09524168 -0.0684184 0.1738478 0.08725639 0.078063965
-0.040737916 -0.023209458 -0.051082954 0.13621227 0.031744465 -0.08704429 -0.037889056 -0.13185701
-0.0059914677 0.08320215 -0.21254511 -0.16523136 0.01799745 0.0024918688 0.014229145 0.032147013
-0.06325801 -0.24677905 0.0700609 0.20875208 -0.17694587 -0.071972564 0.069003575 -0.004324826
0.10376352 0.013639852 -0.07965646 -0.15881597 -0.06482418 -0.2754741 -0.020204829 -0.1890945
0.0026891602 -0.13050088 0.13740212 0.04525822 0.04057837 0.052456845 -0.09334939 -0.017181795
0.20740125 0.019460786 -0.16500242 0.18393235 -0.16142778 0.0781236 -0.13778332 -0.0323193
0.011990708 -0.17536916 -0.07711027 -0.15805012 -0.11301765 0.050288435 -0.059024017 -0.20081796
0.093555115 -0.12694502 0.21584328 -0.039902754 -0.03480914 0.047612097 -0.0962193 0.006562557
0.20034532 -0.03137146 0.005833642 0.027591042 0.028471611 0.16447257 -0.028599929 0.15813443
0.08306745 0.24447466 0.04422835 0.13744693 0.09125274 0.076767445 -0.0037131128 0.03707637
0.043947086 0.019401032 0.07985081 0.060354646 0.20240884 -0.053058255 0.238311 -0.023175474
-0.029624568 0.11910647 0.11689081 0.19589804 0.055264242 0.036021642 0.028748611 -0.0038217993
-3.1324096e-05 0.041814588 0.003683731 0.08191277 -0.07094296 -0.08519252 0.17825958 -0.058854107
0.06753282 0.18871847 -0.11325673 0.03411612 0.004459367 0.14193054 -0.1161414 0.11695153
-0.026481127 -0.003414063 0.075062126 0.025799561 0.004166981 0.026882267 0.08451727 -0.066383824
0.026011536 -0.027599044 0.07011648 0.03277502 0.052481085 0.13583854 0.11845102 0.24125299
00000000: b54e 733e 0cc2 d43c f01e 85bd 0d0b 3dbd
00000010: 63e4 253e aeca 983d 77c2 7c3c d068 223d
00000020: 1543 8dbd caeb ce3d 4930 1bbe c2aa 9a3c
00000030: 2464 97bd 11ff 363d 6cdc 5ebd 0daf a6bd
00000040: 6143 6d3d 5325 8d3d 04c2 b43d 0008 31bd
00000050: 8424 08bc 06da acbd b4d7 1ebc 1df8 84bb
00000060: 5ee9 843c e159 063e c6d4 d73d beaf c43d
00000070: e6fc 2bbd fa2d 0f3d 8008 213e 53d7 9dbd
00000080: b19a cd3d 72e8 bd3d c0ec d3bd bb90 cf3d
00000090: 905b ddbc 0423 c5bb 3d79 8dbc a424 963d
000000a0: 25da f83d 7693 933e 187e bbbc 002d 0f3d
000000b0: 3a4a 433e ce3a cfbd d770 0abe 780a 10bd
000000c0: 653a 12be 3bc1 9d3d 8ad6 b13b 23c7 113e
000000d0: e830 3c3d 3747 0bbe c8d0 283e f684 76bd
000000e0: e421 dbbc 9a28 b63d 9456 b93d 3cf4 fcbd
000000f0: 9270 67bd 183d 0b3e 349d 923d d3cf 873d
00000100: 6e3a 633e 64b9 413c 8b74 0fbd afa9 a63d
00000110: 7fc4 013e 9fa9 21bd 2fed a93d 6a78 ad3d
00000120: 3081 643e 111a 69bd e52c 9ebd 5765 bc3d
00000130: 0964 3c3e 4df3 423c 6d60 823c 7b0c 9a3c
00000140: ccf8 61bd a12b c73d 9a77 cabd f856 8cbd
00000150: 1d89 a43d 440c 42bd 6044 2e3e eda3 0f3e
00000160: bc21 7f3c 438d b4bd 821a cd3c 03e5 24bd
00000170: 3825 d6bb 03fa d53d e5c7 733d 3c81 453d
00000180: dcd6 07bd 79a9 94bd b813 9e3d de8e 1bbc
00000190: 35f7 493d fea6 d23d 8c50 c5bd 3e98 3bbd
000001a0: 719f 613c 6421 a53d 95aa fa3d aa04 a13c
000001b0: f006 4f3d 09ce 24bd 13ed 1f3e ccf6 273e
000001c0: 598f 173e bdf0 d93d e872 103e 3a16 3a3c
000001d0: 7d71 71bd ef9d c0bc b68a 103e a8fd 9f3d
000001e0: 2612 b43c cd5f fa3c 024d 0e3d 120e c3bd
000001f0: f21e 8cbd 2805 323e 7ab3 b23d 00e0 9f3d
00000200: cddc 26bd c321 bebc 5c3c 51bd 3b7b 0b3e
00000210: 7c06 023d 4744 b2bd 8e31 1bbd 8605 07be
00000220: 1354 c4bb e465 aa3d 6da5 59be 6932 29be
00000230: 636f 933c 9f4e 233b 5c21 693c 96ac 033d
00000240: 6a8d 81bd a6b3 7cbe 177c 8f3d 1bc3 553e
00000250: 4c31 35be 5a66 93bd bf51 8d3d 45b7 8dbb
00000260: f881 d43d b079 5f3c ed22 a3bd a7a0 22be
00000270: 8ac2 84bd f10a 8dbe 9984 a5bc fda1 41be
00000280: 9f3c 303b 06a2 05be 24b3 0c3e af60 393d
00000290: 8135 263d fddc 563d f72d bfbd d6c0 8cbc
000002a0: fe60 543e 3a6c 9f3c 65f6 28be c358 3c3e
000002b0: 534d 25be 44ff 9f3d 1217 0dbe 3e61 04bd
000002c0: ad74 443c f993 33be fdeb 9dbd e4d7 21be
000002d0: cc75 e7bd 3ffb 4d3d 2bc3 71bd 39a3 4dbe
000002e0: d399 bf3d e0fd 01be 0506 5d3e 1271 23bd
000002f0: 0794 0ebd e704 433d a00e c5bd b80a d73b
00000300: 5327 4d3e 5c7f 00bd 2328 bf3b 9c06 e23c
00000310: 4c3d e93c 7f6b 283e 664a eabc feed 213e
00000320: 441f aa3d 9157 7a3e c928 353d e3be 0c3e
00000330: b7e2 ba3d 4038 9d3d b257 73bb 64dd 173d
00000340: dc01 343d eaee 9e3c d288 a33d 6f36 773d
00000350: 4344 4f3e 9d53 59bd cc07 743e 7eda bdbc
00000360: 39af f2bc 18ee f33d 7364 ef3d 7f99 483e
00000370: c25c 623d 6e8b 133d 3582 eb3c 2777 7abb
00000380: fe61 03b8 c645 2b3d c06a 713b e2c1 a73d
00000390: 8b4a 91bd 6a79 aebd ae89 363e 0111 71bd
000003a0: a64e 8a3d 6a3f 413e 25f3 e7bd 58bd 0b3d
000003b0: e21f 923b 3d56 113e 8bdb edbd 4984 ef3d
000003c0: f3ee d8bc 79be 5fbb 2cba 993d 9a59 d33c
000003d0: 2c8b 883b 3338 dc3c 6417 ad3d 3ef4 87bd
000003e0: 2516 d53c 6417 e2bc 3b99 8f3d 193f 063d
000003f0: 68f6 563d 4219 0b3e 7396 f23d 060b 773e

lstm.bias_hh_l0_reverse f4 [256]
0.18853983 -0.12533352 -0.036030624 0.036644116 0.20061801 0.07233041 0.013323633 0.06878937
0.012140619 0.09833144 0.04936849 0.037834577 -0.03700346 0.04446921 -0.022802953 0.037298437
-0.037170056 -0.086988054 -0.14320512 0.079422265 0.008097382 -0.15936598 0.1838692 0.06428513
0.08964523 0.13015643 -0.025110021 0.06807118 -0.14236459 -0.0911734 -0.03627995 -0.048429616
-0.06259918 0.037691485 -0.09049299 -0.03530329 0.005036759 0.029053409 -0.14557007 0.05793224
0.11001008 0.20145835 0.04628128 -0.020656206 -0.005623489 0.10201127 -0.1754374 0.12339156
-0.13712856 -0.05603585 0.031180397 -0.00429139 0.043824196 -0.08666025 -0.014068362 -0.19183002
0.053981576 0.031371202 -0.06638022 -0.05706239 0.12276199 -0.004609739 0.06347887 0.107274845
0.029389922 0.033972096 -0.10570161 0.116266645 0.09873698 -0.038969826 0.11517251 0.15741122
0.113767296 -0.1132353 0.048541255 0.11983745 0.0067408723 0.0849706 0.0008790315 0.04902502
-0.04832182 -0.047289174 0.055806942 0.028000997 -0.041058715 -0.013514332 0.08648977 0.10033351
-0.08020483 -0.031144481 0.07764869 -0.041145362 0.090942614 -0.13294752 0.03179707 0.08637444
-0.032334108 0.009710751 -0.092136264 -0.032158207 0.20201273 0.031418487 0.015299077 -0.06596391
0.15616713 -0.02053943 0.19257644 -0.17849727 0.04506439 -0.040236596 0.10671076 0.022320716
0.13312927 0.059937503 0.0098250955 -0.03999956 -0.08142504 0.15479377 0.107628524 0.1554944
0.040565927 -0.09122142 0.123823 0.063617475 -0.0067379987 0.048430707 0.07424516 0.12946807
0.18539716 -0.22635093 -0.2218464 0.21183716 -0.14184351 0.0082200365 -0.12963824 -0.12767643
0.21075612 -0.04417095 -0.124651186 -0.0037214183 0.003309724 -0.018703366 0.0007008961 -0.030567605
-0.033573247 -0.042980034 0.0017153888 0.13349724 -0.048401684 0.006837905 0.097862996 -0.08139483
0.14268531 -0.03667981 -0.24285442 -0.14574865 -0.09003778 -0.078909464 -0.022900103 0.026045254
0.04333244 -0.110237196 0.009830522 0.14602783 -0.009092035 -0.15652618 -0.018547552 0.12729855
0.13041143 -0.081972525 -0.09257592 0.006999252 -0.22173825 0.018227195 -0.17553152 -0.07355673
0.13207917 -0.22508587 -0.020040391 -0.2048012 -0.031478304 0.051348746 0.052993637 -0.024054214
0.20852868 -0.24856515 0.23290753 0.013777459 -0.0347527 -0.0016526593 -0.0511768 0.15295807
0.24656096 -0.031976014 0.17051026 -0.012120415 0.19883423 0.103265494 -0.0071478337 0.21718872
0.029223282 0.05627477 0.022714226 0.13580148 -0.08903884 0.15207879 0.07372602 0.1312919
0.023007812 0.047456678 0.10284015 0.12479866 0.24866861 -0.050290644 0.0044937935 0.10284227
-0.00516791 0.06261643 -0.074754745 -0.011121667 0.073602036 0.072616965 -0.06355546 0.14550054
0.009543291 0.005734431 0.05436088 0.17717111 -0.1308458 0.14922376 0.14265263 -0.05815513
0.007365778 0.22612602 -0.049993135 0.09370208 0.13771686 0.117678344 -0.15699884 0.2650901
-0.044927187 -0.15844342 0.18040012 0.08139274 0.10251928 -0.14201656 -0.02572391 -0.15674981
0.18180938 0.075502515 0.19889736 -0.07327916 0.043701973 0.20822056 -0.03787256 0.002993803
00000000: 9610 413e 6e57 00be d994 13bd 2418 163d
00000010: cf6e 4d3e f721 943d 5e4b 5a3c 71e1 8c3d
00000020: 72e9 463c fe61 c93d 9d36 4a3d 6ef8 1a3d
00000030: f190 17bd 5925 363d 42cd babc 3fc6 183d
00000040: a13f 18bd cb26 b2bd 5da4 12be 24a8 a23d
00000050: e2aa 043c d630 23be 3548 3c3e eca7 833d
00000060: eb97 b73d ba47 053e 88b3 cdbc e768 8b3d
00000070: 06c8 11be 1fb9 babd 499a 14bd 225e 46bd
00000080: 0034 80bd 6362 1a3d 6454 b9bd 2f9a 10bd
00000090: 660b a53b 6a01 ee3c 5210 15be 5b4a 6d3d
000000a0: f74c e13d 194b 4e3e 7191 3d3d 3437 a9bc
000000b0: 3f45 b8bb 49eb d03d dda5 33be b7b4 fc3d
000000c0: 6e6b 0cbe d985 65bd 086e ff3c ca9e 8cbb
000000d0: 0081 333d ee7a b1bd fd7e 66bc 176f 44be
000000e0: c91b 5d3d 177f 003d 5af2 87bd 41ba 69bd
000000f0: a36a fb3d 4b0d 97bb 3601 823d eab2 db3d
00000100: 22c3 f03c 5326 0b3d 167a d8bd 351d ee3d
00000110: 9d36 ca3d d39e 1fbd 91df eb3d 6830 213e
00000120: d4fe e83d e9e7 e7bd 32d3 463d 566d f53d
00000130: 89e2 dc3b 1105 ae3d ce6e 663a 76ce 483d
00000140: 1aed 45bd 4bb2 41bd d295 643d 5962 e53c
00000150: 2f2d 28bd 376b 5dbc 8c21 b13d a87b cd3d
00000160: 6e42 a4bd b622 ffbc 4706 9f3d 0a88 28bd
00000170: 1f40 ba3d 6523 08be a53d 023d 15e5 b03d
00000180: c570 04bd d719 1f3c f0b1 bcbd 53b8 03bd
00000190: 6ddc 4e3e acb0 003d fba8 7a3c 1618 87bd
000001a0: 47ea 1f3e 4f42 a8bc c232 453e fdc7 36be
000001b0: 7095 383d 21cf 24bd 2c8b da3d efd9 b63c
000001c0: 0a53 083e 0781 753d 70f9 203c 94d6 23bd
000001d0: 2cc2 a6bd 4282 1e3e 586c dc3d ed39 1f3e
000001e0: 7528 263d 4cd2 babd ea96 fd3d e149 823d
000001f0: 6eca dcbb 475f 463d d90d 983d 4793 043e
00000200: c1d8 3d3e 8ac8 67be b42b 63be d7eb 583e
00000210: 6d3f 11be 55ad 063c e3bf 04be 9cbd 02be
00000220: 74d0 573e 99ec 34bd 1f49 ffbd 0ae3 73bb
00000230: f4e7 583b cd37 99bc 57bc 373a ea68 fabc
00000240: 1a84 09bd d50b 30bd e6d6 e03a 80b3 083e
00000250: d840 46bd 8110 e03b 656c c83d 55b2 a6bd
00000260: 191c 123e 923d 16bd d4ae 78be 223f 15be
00000270: ba65 b8bd 499b a1bd ff98 bbbc db5c d53c
00000280: 5b7d 313d 0ac4 e1bd 3310 213c 5288 153e
00000290: c2f6 14bc 6648 20be 09f1 97bc 8d5a 023e
000002a0: 938a 053e 36e1 a7bd 7298 bdbd fb59 e53b
000002b0: 5a0f 63be 3351 953c 89be 33be e9a4 96bd
000002c0: c33f 073e e97c 66be bf2b a4bc 68b7 51be
000002d0: 65ef 00bd 1053 523d db0f 593d 580d c5bc
000002e0: 8b88 553e dd87 7ebe 507f 6e3e daba 613c
000002f0: d958 0ebd 0b9e d8ba c49e 51bd 0aa1 1c3e
00000300: 7a7a 7c3e 48f9 02bd 3e9a 2e3e b594 46bc
00000310: 339b 4b3e dc7c d33d 6038 eabb b866 5e3e
00000320: aa65 ef3c 6080 663d 2f13 ba3c 8b0f 0b3e
00000330: ff59 b6bd 8bba 1b3e abfd 963d 6271 063e
00000340: e17a bc3c ef61 423d db9d d23d 7196 ff3d
00000350: fca2 7e3e 90fd 4dbd ac40 933b f89e d23d
00000360: 9257 a9bb 0b3d 803d 0419 99bd a737 36bc
00000370: aabc 963d 34b8 943d 5d29 82bd 18fe 143e
00000380: 775b 1c3c e5e7 bb3b 84a9 5e3d 586c 353e
00000390: 71fc 05be 1dce 183e 8813 123e 1334 6ebd
000003a0: a05c f13b 948d 673e 9ac5 4cbd e0e6 bf3d
000003b0: a605 0d3e 5801 f13d 4ec4 20be e4b9 873e
000003c0: 9205 38bd fe3e 22be cfba 383e 3db1 a63d
000003d0: a1f5 d13d ca6c 11be f3ba d2bc 0683 20be
000003e0: 3d2c 3a3e 10a1 9a3d c0ab 4b3e 6213 96bd
000003f0: d700 333d c537 553e 4220 1bbd ae33 443b
