CA_comm/CA_comm/python/models/ddqn/ddqn_ccmask.pth (torch, 113861 bytes, 6 tensors)

net.0.weight f4 [128, 54]
-0.031037778 -0.02244027 -0.035326425 -0.03694323 -0.030311663 -0.026622796 -0.010477491 -0.031341977
-0.036073323 -0.025528088 -0.028309504 -0.010106962 -0.032352723 -0.03564901 -0.028100224 -0.031544644
-0.018574245 -0.031461712 -0.030661387 -0.023381697 -0.0333606 -0.010107353 -0.029540544 -0.0376141
-0.023934733 -0.032002643 -0.013026563 -0.031404752 -0.034787286 -0.025103008 -0.03229454 -0.01616551
-0.030467432 -0.03115693 -0.023677368 -0.032965835 -0.01571928 -0.033309177 -0.030646263 -0.025596073
-0.03035172 -0.017883308 -0.03470846 -0.036836278 -0.031619642 -0.021033477 -0.021925908 -0.03395678
-0.042528436 -0.030291906 -0.005497275 -0.010392233 -0.008994145 -0.046158276 -0.006504499 -0.009536845
-0.008793416 -0.009759168 -0.009782248 -0.0068369517 -0.009927915 -0.009601993 -0.010181671 -0.009763205
-0.006868926 -0.0099431425 -0.009572159 -0.010619895 -0.010157799 -0.007263168 -0.009938762 -0.010059633
-0.010619391 -0.010121525 -0.007313213 -0.009480964 -0.010062658 -0.011065331 -0.009705851 -0.006927484
-0.009051757 -0.010088745 -0.011094332 -0.0092941625 -0.006570837 -0.009932802 -0.0101522105 -0.011090555
-0.009765053 -0.006327076 -0.0099759055 -0.010233955 -0.010667973 -0.009790881 -0.005666719 -0.009568208
-0.009850798 -0.010668967 -0.008947181 -0.006373695 -0.008289266 -0.009448959 -0.010242153 -0.0081318375
0.02412532 0.017028494 -1.2219083e-07 -0.039638042 -0.05986933 -0.029163545 0.06515699 -0.08547128
0.06695401 -0.05234413 0.07748242 0.10618181 -0.2019416 0.01237494 -0.13570024 0.09174289
0.0029260234 -0.2747392 0.22075552 -0.045998015 0.09773407 0.12652664 -0.21543433 -0.015795533
0.044427726 0.040651195 0.17883942 -0.16445215 -0.052934356 -0.1879545 0.048457697 0.0074705775
0.06219214 -0.13097459 -0.21061875 -0.017009985 0.099231675 -0.033624005 -0.16043775 -0.08677013
0.18494603 0.054815974 0.06745394 0.13621575 -0.17412388 0.01726101 0.1794641 -0.03273541
0.059707914 0.07528129 0.021062804 0.2047546 0.0006728457 0.21753575 -0.039493043 0.08752936
0.0056311903 -0.22866306 -9.2194075e-32 -9.8376746e-32 -1.0735958e-31 -9.01562e-32 -9.4877094e-32 -9.2812126e-32
-9.7892783e-32 -1.0897171e-31 -9.0045195e-32 -9.56323e-32 -9.3985464e-32 -9.8380784e-32 -1.0864412e-31 -8.997949e-32
-9.573052e-32 -9.556453e-32 -9.918684e-32 -1.0864049e-31 -8.904535e-32 -9.703269e-32 -9.627675e-32 -9.961476e-32
-1.1003415e-31 -8.986433e-32 -9.732952e-32 -9.5705835e-32 -1.005809e-31 -1.1102613e-31 -9.0066336e-32 -9.730824e-32
-9.585629e-32 -1.00842e-31 -1.1198496e-31 -9.0762117e-32 -9.671199e-32 -9.5884657e-32 -1.0015796e-31 -1.1251332e-31
-9.101763e-32 -9.637839e-32 -9.5585735e-32 -9.976683e-32 -1.1196198e-31 -9.073783e-32 -9.5839007e-32 -9.3111495e-32
-9.886401e-32 -1.1217117e-31 -9.099412e-32 -9.5147775e-32 9.1036454e-32 -3.1311088e-32 1.680409e-32 -1.752542e-31
-1.416453e-10 -2.0425177e-09 -1.8400633e-09 -3.6082268e-09 -2.776764e-09 -1.4688752e-10 -1.4199932e-09 -1.893851e-09
-5.0575184e-09 -2.0664417e-09 -8.807161e-11 -9.743918e-10 -1.9145872e-09 -5.0366014e-09 -1.4482129e-09 -5.055862e-11
-2.1701785e-09 -1.9558053e-09 -4.956369e-09 -2.198462e-09 -8.653731e-11 -2.1512188e-09 -1.9437014e-09 -3.5078134e-09
-2.1502877e-09 -8.1934036e-11 -1.4563277e-09 -1.3045874e-09 -3.5136587e-09 -9.559968e-10 -7.89901e-11 -4.037968e-10
-8.4729684e-10 -2.465378e-09 -3.821433e-10 -7.8823295e-11 -4.0268397e-10 -8.370551e-10 -2.4317865e-09 -5.5459104e-10
00000000: f042 febc a8d4 b7bc 71b2 10bd c951 17bd
00000010: 2a50 f8bc 0d18 dabc c8a9 2bbc 7260 00bd
00000020: 9fc1 13bd 4820 d1bc 55e9 e7bc ac97 25bc
00000030: 4a84 04bd b204 12bd 7132 e6bc f534 01bd
00000040: 0429 98bc ffdd 00bd 972d fbbc f98a bfbc
00000050: 20a5 08bd 5099 25bc 03ff f1bc 3e11 1abd
00000060: c612 c4bc 3415 03bd 5e6d 55bc 45a2 00bd
00000070: 1d7d 0ebd d3a4 cdbc 4847 04bd 886d 84bc
00000080: d696 f9bc d13c ffbc 0af7 c1bc 2f07 07bd
00000090: b8c5 80bc 346f 08bd df0d fbbc dbae d1bc
000000a0: 2ca4 f8bc 0480 92bc 752a 0ebd a3e1 16bd
000000b0: 9983 01bd 664e acbc f69d b3bc 4416 0bbd
000000c0: 4c32 2ebd bb26 f8bc 7c22 b4bb 2f44 2abc
000000d0: 2e5c 13bc 7610 3dbd b123 d5bb 6d40 1cbc
000000e0: 4312 10bc ebe4 1fbc b945 20bc 8208 e0bb
000000f0: b2a8 22bc ad51 1dbc 06d1 26bc daf5 1fbc
00000100: ba14 e1bb 90e8 22bc 8bd4 1cbc 11ff 2dbc
00000110: e66c 26bc dfff edbb 30d6 22bc 29d1 24bc
00000120: f4fc 2dbc c1d4 25bc ada3 efbb 0c56 1bbc
00000130: d9dd 24bc 5d4b 35bc 4a05 1fbc f3ff e2bb
00000140: d24d 14bc 434b 25bc 00c5 35bc 8b46 18bc
00000150: 2d50 d7bb 31bd 22bc 7555 26bc 29b5 35bc
00000160: 9afd 1fbc 5c53 cfbb fb71 23bc 52ac 27bc
00000170: b9c8 2ebc ee69 20bc e2af b9bb f9c3 1cbc
00000180: 3e65 21bc e4cc 2ebc 3297 12bc 6eda d0bb
00000190: b4cf 07bc cecf 1abc b4ce 27bc 663b 05bc
000001a0: 77a2 c53c 577f 8b3c 8f33 03b4 805b 22bd
000001b0: 8b39 75bd 63e8 eebc 0771 853d 910b afbd
000001c0: 2f1f 893d cc66 56bd 1aaf 9e3d d975 d93d
000001d0: c7c9 4ebe 43c0 4a3c 01f5 0abe b2e3 bb3d
000001e0: 87c2 3f3b 9eaa 8cbe bc0d 623e 6a68 3cbd
000001f0: cd28 c83d 3390 013e d19a 5cbe a265 81bc
00000200: d9f9 353d de81 263d ae21 373e 2566 28be
00000210: b2d1 58bd 2577 40be 947b 463d bfcb f43b
00000220: 2fbd 7e3d 341e 06be 71ac 57be 8658 8bbc
00000230: fa39 cb3d 53b9 09bd cb49 24be 8ab4 b1bd
00000240: 7e62 3d3e b786 603d 4b25 8a3d 247c 0b3e
00000250: 884d 32be f666 8d3c 70c5 373e 9115 06bd
00000260: 4990 743d 142d 9a3d e78b ac3c 31ab 513e
00000270: e961 303a b1c1 5e3e 75c3 21bd 9842 b33d
00000280: d985 b83b a626 6abe 7959 ef8b 9066 ff8b
00000290: 575c 0b8c 130f ea8b a550 f68b 3df4 f08b
000002a0: ea24 fe8b 1074 0d8c 4cc5 e98b 9146 f88b
000002b0: 0e00 f48b 3f69 ff8b 3407 0d8c a199 e98b
000002c0: d887 f88b 8619 f88b 7bc0 008c ff05 0d8c
000002d0: c92c e78b 49e9 fb8b e0f2 f98b af4e 018c
000002e0: 1ed5 0e8c 174d e98b 90ae fc8b 7077 f88b
000002f0: bd8f 028c c31e 108c 59d3 e98b 6ba0 fc8b
00000300: 6fdb f88b 81e6 028c 635d 118c c6a1 eb8b
00000310: 2414 fb8b 49ee f88b 3103 028c f70c 128c
00000320: 974b ec8b 6d36 fa8b 9e27 f88b 3781 018c
00000330: c055 118c a291 eb8b f2cf f88b 34bb f18b
00000340: 3455 008c 449b 118c f73b ec8b 8b04 f78b
00000350: 1a58 ec0b 9393 228b ef80 ae0a 327e 638c
00000360: 9cbd 1baf 5a5c 0cb1 79e5 fcb0 99f4 77b1
00000370: 59d1 3eb1 2981 21af 9229 c3b0 fb24 02b1
00000380: 67c6 adb1 3a01 0eb1 e9ab c1ae 5deb 85b0
00000390: c691 03b1 6a0e adb1 760a c7b0 f25b 5eae
000003a0: 2f22 15b1 e466 06b1 af4c aab1 c113 17b1
000003b0: 2d4c beae a4d4 13b1 f591 05b1 1b0e 71b1
000003c0: 43c4 13b1 c32c b4ae fa27 c8b0 174d b3b0
000003d0: f074 71b1 2664 83b0 79b3 adae 59fd ddaf
000003e0: 37e7 68b0 636b 29b1 e315 d2af 9255 adae
000003f0: bb60 ddaf 8416 66b0 711c 27b1 e071 18b0

net.0.bias f4 [128]
-0.0037667467 -1.5768906e-10 -0.0016126859 1.3754477e-32 -9.656014e-39 -0.00010111288 8.005974e-39 -6.88983e-40
-1.5397458e-05 0.06344393 -1.6369612e-17 -0.016889527 -1.5967398e-38 -0.010105537 8.556305e-39 -0.026920652
-1.2154052e-38 -0.00021549704 -0.0069951927 1.0792012e-38 -0.00026450402 -2.3029243e-08 5.503221e-19 -1.8078994e-12
3.6166925e-38 -0.010717052 -0.0003311365 -0.0037403214 -0.0003264982 -0.010176589 -0.008320409 -1.067125e-38
-0.009523584 -0.0153421555 -5.7885295e-16 9.780912e-39 -1.5263078e-15 3.856326e-36 0.22149569 1.0336566e-38
-0.0019036462 -4.2298032e-27 9.165466e-39 -0.0030449603 0.0029276083 1.5093697e-38 -0.002496449 -8.914856e-39
-8.382857e-05 -7.953546e-09 -1.2573827e-38 -3.0612134e-11 -1.0319458e-10 -0.0007110558 -2.751949e-38 1.6597e-38
3.36853e-35 1.1182349e-38 -3.2762764e-22 -3.1545695e-38 3.3606226e-38 0.17043832 7.332488e-39 -4.2738625e-07
-0.00018518892 -0.016999016 -1.0727614e-18 -0.01719065 -0.023286069 -0.0004901059 -6.463326e-07 -2.87364e-38
-0.0070698643 -1.799482e-06 1.6338175e-38 1.2691269e-38 -0.0060269386 1.7070605e-38 -0.00090001925 3.7488742e-38
6.804861e-39 -2.4874329e-05 8.170161e-39 -0.01117777 1.7053984e-38 7.87988e-39 -0.005727841 1.0628002e-38
1.2379846e-38 -9.307726e-28 -3.436471e-38 1.4781611e-38 -0.0025135246 1.5672016e-20 -6.088937e-08 -1.0669535e-24
-0.016218547 -3.502368e-09 -0.0007597086 -0.002225433 -3.5467126e-10 6.689879e-39 -1.9543393e-38 2.704449e-38
2.1926208e-38 1.218828e-39 -5.055597e-08 -1.7777083e-05 -4.2153642e-38 -5.2788303e-38 -3.0353958e-38 -0.0002357567
0.05597636 -2.143471e-39 -0.019289944 -0.0019300921 -6.3777473e-15 -7.727429e-05 -0.01740731 -1.8131598e-38
3.0136666e-37 -4.5723982e-38 2.1944611e-38 -0.015014395 2.0729889e-38 -4.6166937e-22 -2.0324751e-38 -0.025443556
00000000: 86db 76bb 8661 2daf c260 d3ba acd5 8e0a
00000010: 0a25 6980 900c d4b8 662d 5700 9b80 0780
00000020: ca29 81b7 e4ee 813d a7fb 96a3 e85b 8abc
00000030: 9cde ad80 b291 25bc 7f2b 5d00 b388 dcbc
00000040: 8d58 8480 0cf7 61b9 ee37 e5bb bd83 7500
00000050: 21ad 8ab9 d7d1 c5b2 2a6d 2221 7170 feab
00000060: 56e9 4401 9396 2fbc 649c adb9 2e20 75bb
00000070: d92d abb9 b5bb 26bc 5352 08bc 1a33 7480
00000080: ce08 1cbc aa5d 7bbc cfd7 26a6 3481 6a00
00000090: d2f6 dba6 ac07 a404 c4cf 623e 248e 7000
000000a0: c483 f9ba 4d8f a793 97cd 6300 f58d 47bb
000000b0: 1edd 3f3b 165b a400 779b 23bb fe12 6180
000000c0: 1fcd afb8 11a4 08b2 b7ea 8880 33a2 06ae
000000d0: 62ed e2ae 2666 3aba 92d4 1581 afb9 b400
000000e0: 0e1a 3306 d7c3 7900 ec09 c69b 48c0 2b81
000000f0: 3ef8 3601 6287 2e3e fed7 4f00 8573 e5b4
00000100: 462f 42b9 8541 8bbc c84f 9ea1 68d3 8cbc
00000110: 6dc2 bebc 737a 00ba a37f 2db5 b274 1c81
00000120: 52aa e7bb bb85 f1b5 2fe8 b100 1832 8a00
00000130: a07d c5bb e7e1 b900 45ef 6bba ae1b 4c01
00000140: 2f19 4a00 37a9 d0b7 16f7 5800 f722 37bc
00000150: 92b3 b900 e6cd 5500 9db0 bbbb 8cba 7300
00000160: f9cd 8600 9f7c 9392 6a19 3b81 1ef5 a000
00000170: f2b9 24bb 9c04 941e 49c2 82b3 621a a597
00000180: c2dc 84bc 4fae 70b1 2e27 47ba 92d8 11bb
00000190: 8bfb c2af a9d8 4800 07cf d480 843e 1301
000001a0: 59c1 ee00 9945 0d00 e022 59b3 ff1f 95b7
000001b0: 9a81 6581 14b4 8f81 3e43 2581 7535 77b9
000001c0: 7847 653d 2057 1780 f205 9ebc 25fb fcba
000001d0: 56c8 e5a7 520e a2b8 c699 8ebc 856f c580
000001e0: 7a19 cd02 eef1 7881 a6f4 ee00 f0fe 75bc
000001f0: 7fba e100 f087 0b9c 2351 dd80 016f d0bc

net.2.weight f4 [128, 128]
-1.0517796e-38 6.335014e-39 6.049974e-39 2.037434e-34 1.692786e-38 3.122054e-21 3.0182573e-38 1.4798889e-38
9.960983e-39 0.04447742 3.929724e-39 0.02892169 8.421326e-39 2.3371133e-38 4.708003e-38 2.1280773e-38
-1.1114609e-38 -1.0460334e-38 -2.5512917e-38 2.7066853e-38 1.3292026e-38 1.622589e-38 8.614985e-39 1.7681328e-38
-2.690796e-39 5.760004e-39 -1.2699654e-38 6.191934e-39 -0.013886414 -0.003481325 4.511803e-38 -5.593162e-39
-1.3588784e-38 -3.1597935e-38 -4.24292e-38 1.965364e-38 -1.8472352e-38 -3.892628e-38 -0.0059889364 1.2988005e-38
-2.4430565e-38 -5.2340785e-38 1.3544e-39 -4.23248e-40 0.046094168 4.5110006e-38 3.7733725e-38 -4.702687e-38
-2.5455335e-38 1.015766e-39 1.4063053e-38 -2.0117514e-38 -2.954841e-39 1.2328111e-38 1.893192e-38 1.682534e-38
8.041896e-39 -1.6424269e-38 1.339499e-38 -1.0464817e-38 1.2235276e-38 -0.037111428 2.6300707e-38 -1.8066665e-38
9.1290316e-23 0.07512111 -8.606261e-39 -6.40701e-39 -0.072282925 -4.2980335e-38 -1.0168562e-38 -1.5409027e-38
-1.3446255e-38 1.343757e-38 -3.8384222e-38 -1.249828e-38 1.4022345e-38 -1.2085444e-38 2.746878e-38 -2.093333e-38
1.9396075e-38 -2.0192632e-38 -7.606493e-39 2.72328e-40 4.2809657e-38 1.7324413e-38 1.3901779e-38 -1.4415852e-38
1.1996927e-38 8.150085e-39 9.443394e-39 1.7983314e-38 -0.039078243 -8.458293e-22 -1.8574001e-38 1.4902555e-09
-1.082609e-38 -1.2950117e-38 1.6192741e-38 -1.128292e-39 -1.8279081e-38 -3.343893e-39 -1.57462e-38 -1.1318768e-38
-2.1882008e-38 -1.3033334e-38 8.732955e-39 1.6319251e-38 1.9759544e-38 -2.6281095e-38 -9.917732e-39 2.773836e-38
-0.044104606 5.4024405e-38 -0.05036726 -2.321798e-38 -2.7400805e-38 1.774329e-38 -2.5151587e-38 1.5127471e-38
-2.8386055e-38 5.935889e-38 -9.291455e-39 1.2840637e-38 -1.2616954e-38 -1.7294155e-21 1.7709369e-38 -3.687843e-39
1.3722623e-38 -6.340195e-39 2.201188e-39 9.05442e-39 6.793712e-39 -2.869461e-39 -3.158985e-39 -2.2470467e-38
-1.10624e-38 -0.06303595 3.06059e-39 6.23958e-40 1.1611673e-38 -5.376452e-39 4.074324e-39 -1.4345782e-38
1.0558958e-38 4.718622e-39 -4.940491e-39 -2.768718e-39 3.848952e-12 -2.193323e-38 1.947469e-39 -5.146363e-38
9.366282e-39 -1.2121131e-38 -5.74724e-40 9.91487e-39 0.007340611 0.00151923 3.836429e-39 5.779406e-39
-6.254281e-38 -6.055671e-38 6.065148e-39 1.5284807e-38 -7.090085e-39 5.604795e-38 -0.09066648 4.129795e-39
6.341751e-38 1.0456163e-38 -1.7595973e-38 1.3657739e-38 -1.6799706e-29 -1.3609045e-38 -7.649967e-39 9.846538e-39
1.5254294e-38 1.8982266e-38 -4.3805358e-38 1.4337949e-38 2.2111336e-38 9.95893e-39 3.8393274e-38 -3.811338e-39
-9.599679e-39 -1.1123468e-38 -7.975721e-39 -1.1749368e-38 5.6293007e-38 -0.042706214 5.604359e-39 6.2630373e-38
6.427624e-39 -1.020814e-38 5.246679e-38 7.929104e-39 -2.409304e-38 -2.064815e-38 3.151091e-39 -9.833661e-39
1.840712e-38 1.063211e-39 -3.807739e-39 -1.071561e-38 -9.31387e-39 1.6709847e-38 1.1068787e-38 -2.79335e-39
-2.102804e-39 5.510847e-38 7.370557e-39 3.4246765e-38 8.405718e-39 -1.4675614e-38 1.2766879e-38 -2.537324e-38
7.007634e-39 2.086018e-38 -9.558348e-39 1.671816e-38 -0.020242006 3.788162e-39 -2.93864e-39 6.266359e-39
-2.201081e-39 -2.485961e-39 1.285624e-38 -2.1898747e-38 4.788644e-38 -1.9940162e-38 1.327375e-38 -7.948606e-39
1.1987282e-38 2.6853593e-38 6.474463e-39 -2.235296e-38 -1.7035585e-38 -4.2365815e-38 1.3938426e-38 2.3378995e-38
-0.027570192 -1.796119e-38 -1.9515616e-38 5.0086645e-38 1.3455907e-38 2.181675e-38 4.620479e-39 3.3374995e-38
8.414182e-39 -4.1700266e-38 5.332168e-39 -5.947315e-11 -2.1658103e-38 2.661932e-39 6.790971e-39 -0.005809818
00000000: 5687 7280 71fb 4400 dee0 4100 2569 8707
00000010: fd53 b800 4fe5 6b1d 5e54 2401 4825 a100
00000020: 2b77 6c00 f52d 363d 79ca 2a00 2eed ec3c
00000030: 3bb3 5b00 367d fe00 fe29 8001 23ba e700
00000040: 0207 7980 28e7 7180 d1e7 0a81 b05d 1301
00000050: c3bc 9000 2eaf b000 13cf 5d00 5988 c000
00000060: d84c 1d80 8cb8 3e00 7849 8a80 986c 4300
00000070: d783 63bc f126 64bb 5ba5 7501 76e7 3c80
00000080: 00f8 9380 1809 2c81 ac01 6781 5a02 d600
00000090: 6725 c980 51ef 5381 d73e c4bb 466d 8d00
000000a0: 3d03 0581 347c 8e81 84bf 0e00 d89b 0480
000000b0: 3dcd 3c3d 2c9a 7501 2371 4d01 f204 8081
000000c0: 8f97 0a81 8b0f 0b00 1222 9900 720f db80
000000d0: e52c 2080 c23d 8600 7e26 ce00 3436 b700
000000e0: 8991 5700 2ed8 b280 c8db 9100 a7f3 7180
000000f0: f93a 8500 2702 18bd d631 0f01 83ba c480
00000100: f8b9 dc1a 19d9 993d c1b6 5d80 23c4 4580
00000110: 1209 94bd d801 6a81 d0b9 6e80 19ca a780
00000120: b06a 9280 7a52 9200 ccfb 5081 1f18 8880
00000130: 98b0 9800 4d99 8380 e48d 1501 9bf1 e380
00000140: 5e34 d300 d8e0 db80 cfd3 5280 24f7 0200
00000150: f413 6901 6aa5 bc00 8160 9700 88f9 9c80
00000160: 8da2 8200 1fbf 5800 57d4 6600 2ad2 c300
00000170: 8210 20bd dfa2 7f9c c240 ca80 b4d1 cc30
00000180: bce2 7580 a803 8d80 c652 b000 3849 0c80
00000190: a40a c780 6a69 2480 0076 ab80 1f40 7b80
000001a0: 2346 ee80 a2eb 8d80 ed17 5f00 6fb3 b100
000001b0: 9229 d700 8016 0f81 9afe 6b80 a205 1701
000001c0: 08a7 34bd 8411 9301 e64d 4ebd 48d2 fc80
000001d0: 262f 1581 1335 c100 32f0 0881 3cb9 a400
000001e0: 638c 1a81 1c97 a101 cc2c 6580 79d2 8b00
000001f0: ef62 8980 c3ab 029d 84d6 c000 3528 2880
00000200: 176d 9500 e209 4580 04f8 1700 0a98 6200
00000210: 1bfa 4900 e43e 1f80 f765 2280 85ae f480
00000220: 7875 7880 fe18 81bd ae53 2100 57cb 0600
00000230: 9f70 7e00 5c8b 3a80 8f5d 2c00 3436 9c80
00000240: 14fa 7200 9961 3300 14cc 3580 0f26 1e80
00000250: 476c 872c ecd4 ee80 c034 1500 ea18 8c81
00000260: 62fd 6500 c8fc 8380 1942 0680 a0f6 6b00
00000270: 8289 f03b e620 c73a 67c6 2900 a2ee 3e00
00000280: fa41 aa81 ded9 a481 2a0b 4200 d36f a600
00000290: 4634 4d80 b893 9801 59af b9bd 30f8 2c00
000002a0: 8ea3 ac01 87db 7100 6a9a bf80 38b8 9400
000002b0: 885e aa8f 7b30 9480 ff4c 5380 2438 6b00
000002c0: c41a a600 d6b2 ce00 c27f 6e81 5e20 9c00
000002d0: 69c5 f000 7271 6c00 6a08 5101 7680 2980
000002e0: 0088 6880 b41f 7980 11d9 5680 75f0 7f80
000002f0: 803e 9901 b6ec 2ebd ac06 3d00 007f aa01
00000300: 9afd 4500 2428 6f80 04d4 8e01 1e57 5600
00000310: cc2c 0381 a4d6 e080 f64f 2200 3f14 6b80
00000320: 906f c800 cd93 0b00 6d76 2980 c3ae 7480
00000330: 486b 6580 41f4 b500 4687 7800 b96a 1e80
00000340: c3e5 1680 0005 9601 1d42 5000 0675 3a01
00000350: b987 5b00 a4cd 9f80 dd04 8b00 2325 0a81
00000360: 6f4e 4c00 b225 e300 c914 6880 6e0b b600
00000370: 90d2 a5bc db3f 2900 bcff 1f80 0f3c 4400
00000380: b8f7 1780 d911 1b80 f7fd 8b00 cc74 ee80
00000390: fa5b 8201 0f21 d980 d189 9000 7b8d 5680
000003a0: aa87 8200 7234 1201 2b80 4600 f566 f380
000003b0: 4880 b980 54a9 6681 a9c6 9700 2093 fe00
000003c0: e2da e1bc 7d94 c380 9981 d480 4c59 8801
000003d0: 9885 9200 3990 ed00 0450 3200 f4b5 3501
000003e0: 519f 5b00 b009 6381 ea0f 3a00 68c8 82ae
000003f0: fbd5 eb80 62fc 1c00 77f2 4900 4960 bebb

net.2.bias f4 [128]
-0.0260797 -0.072925195 0.30249688 1.1414882e-38 1.7277343e-38 0.48041824 -0.0054385443 -8.52708e-39
0.11771229 2.0137727e-26 -9.044148e-18 -1.0003431e-12 -3.4783865e-05 0.5663586 0.6672705 -2.4432205e-38
-2.9515112e-38 9.842572e-39 -0.021349553 7.865202e-39 0.39677227 -2.530932e-38 -4.6565484e-14 0.5915212
-0.00087651296 -6.215559e-38 -1.8357974e-06 -1.1097246e-09 0.14620827 6.989131e-38 -4.5551924e-23 -9.8346e-39
4.408968e-14 0.4671294 2.245683e-39 -0.015088397 1.827621e-39 3.8321718e-38 7.111e-39 -0.0008609652
0.16568683 9.847315e-39 1.4067571e-38 0.10711329 0.05327888 -2.4301136e-38 8.2849743e-16 1.2970849e-30
-2.6804497e-38 0.21471736 -5.1620254e-38 0.30666035 -0.032305606 3.2422706e-31 -5.540603e-13 -6.3083565e-38
0.30036932 2.483046e-39 -8.7234486e-07 4.936582e-38 -0.0006447653 0.08018821 -6.193693e-05 0.5672783
-5.7858388e-24 0.56978977 -7.614959e-05 -7.365373e-12 0.31310603 0.13093369 1.2553801e-38 -0.0014098965
-2.2688869e-38 -1.6812343e-10 0.35722736 -1.6058696e-33 -2.834148e-10 -0.0014414001 -1.01324605e-14 7.200314e-39
-1.7528904e-05 -8.763294e-16 4.262629e-38 -2.7060251e-25 1.6453495e-20 9.521902e-39 -1.399399e-07 -2.8761513e-05
5.7662053e-38 0.3545367 -5.1215323e-38 -2.25456e-38 -4.451576e-38 -0.002497362 -0.008120892 1.4854229e-38
-0.0006902288 1.2657e-40 -0.05662975 0.024712708 -0.011739897 0.00024366859 -0.07730531 6.5596e-41
-9.47656e-39 -1.4638073e-09 -7.0221095e-38 -0.0003394133 -8.054776e-39 -1.0715375e-38 -6.866221e-18 8.432287e-38
-2.4762725e-22 -1.0980276e-08 0.0023416376 3.0083244e-38 0.006137964 0.04562505 1.8197524e-10 -1.907719e-13
0.45112553 0.06216371 -5.891429e-38 2.1137029e-38 -5.919144e-39 -9.136762e-39 -0.01153543 -4.522327e-26
00000000: 18a5 d5bc ce59 95bd dfe0 9a3e 0c4c 7c00
00000010: 3422 bc00 61f9 f53e d135 b2bb 08da 5c80
00000020: 2413 f13d 346f c714 c8d5 26a3 29c9 8cab
00000030: e4e4 11b8 e1fc 103f 3dd2 2a3f 8605 0581
00000040: 10b2 2081 162d 6b00 42e5 aebc fca4 5500
00000050: bc25 cb3e 0bcc 0981 59b6 51a9 ef6d 173f
00000060: cac5 65ba 2034 a981 8565 f6b5 f784 98b0
00000070: 9fb7 153e 2243 be01 8d46 5c9a dd16 6b80
00000080: f18f 4629 962b ef3e 0d74 1800 5335 77bc
00000090: aae6 1300 aea4 5001 936e 4d00 66b2 61ba
000000a0: cfa9 293e 4f3a 6b00 aa2e 9900 365e db3d
000000b0: f43a 5a3d d74e 0481 52cc 6e26 cc76 d20d
000000c0: 04f0 1181 dede 5b3e 1186 8c81 9602 9d3e
000000d0: e252 04bd 766f d20c 41f4 1bab d4ba ab81
000000e0: 02ca 993e b909 1b00 152b 6ab5 f562 8601
000000f0: 7805 29ba b739 a43d 23e4 81b8 2739 113f
00000100: 2cd4 df98 bedd 113f 80b2 9fb8 b192 01ad
00000110: 6f4f a03e 7b13 063e e4b2 8800 47cc b8ba
00000120: 560f f780 8ada 38af 81e6 b63e 1269 0589
00000130: 16cf 9baf 5ded bcba ba87 36a8 8c67 4e00
00000140: 090b 93b7 b295 7ca6 6114 6801 ae7e a796
00000150: 1c66 9b1e 30af 6700 6342 16b4 e144 f1b7
00000160: 96f8 9c01 d685 b53e df6b 8b81 f67f f580
00000170: ea5d 7281 c8aa 23bb 7d0d 05bc 8cbf a100
00000180: 78f0 34ba d360 0100 99f4 67bd 4e72 ca3c
00000190: b258 40bc 4a81 7f39 3f52 9ebd dbb6 0000
000001a0: cb30 6780 242f c9b0 f628 bf81 48f3 b1b9
000001b0: 70b5 5780 1bae 7480 a051 fda2 778c e501
000001c0: 76ae 959b c4a3 3cb2 2976 193b ecc9 2301
000001d0: f920 c93b 55e1 3a3d 7a15 482f 42ca 56aa
000001e0: edf9 e63e 609f 7e3d 4561 a081 7029 e600
000001f0: 2a74 4080 937d 6380 1aff 3cbc 4eef 5f95

net.4.weight f4 [32, 128]
3.1614336e-38 -0.036701962 -0.31331939 1.1017175e-38 1.3452638e-38 -0.43431202 9.616816e-39 1.2118821e-38
-0.13952707 1.0913391e-38 -0.018529173 -0.00485547 2.465072e-39 -0.3815278 -0.4740912 9.119182e-39
-2.4255624e-38 1.1383808e-38 -0.03162728 -1.3719065e-38 0.0052201366 -2.920735e-39 1.4505175e-38 -0.4249855
-0.031201415 -6.584982e-39 -8.39646e-36 6.816902e-38 -0.07024278 -6.3460934e-38 -1.1370165e-38 1.048455e-38
-2.7558317e-38 -0.3583203 -1.3053032e-38 4.280395e-38 -2.874463e-39 3.0032197e-38 9.861618e-39 0.004118948
-9.204654e-08 -5.92137e-39 -4.0483588e-38 -0.16133215 -0.08741195 2.6899188e-38 3.881099e-39 1.8071251e-38
-6.0831185e-38 -0.039085638 -2.3897688e-38 -0.0029929394 0.02792673 1.4881487e-38 6.374208e-39 -6.428894e-38
-0.32017812 1.239407e-38 1.3746158e-38 -1.177438e-39 -1.642236e-39 -0.0043576853 -0.014898962 -0.36703455
2.1567053e-38 -0.38719958 -5.5153376e-38 -2.9883077e-38 0.036515173 -0.00015026181 1.2223707e-38 2.293669e-39
4.366483e-38 1.5920746e-38 -0.14619406 -0.0005394601 1.1912284e-38 7.217808e-39 -1.4155344e-38 -1.7381227e-38
4.3909074e-38 1.8587107e-38 -2.4976536e-38 1.2235882e-38 -1.289677e-38 -4.885434e-11 -5.722614e-39 1.9674254e-38
-1.5334581e-38 -0.30610228 3.5697456e-38 -5.052508e-39 4.759175e-38 0.011575863 0.028229905 5.261252e-39
8.686077e-39 2.2150573e-38 6.5475363e-09 0.013424961 -1.6313984e-38 -0.00562687 0.017501341 5.191585e-06
-1.5820262e-38 2.0054345e-38 -4.3620986e-38 -6.353545e-39 -6.755211e-39 -5.73407e-39 1.0507964e-38 1.2681988e-38
2.4734255e-38 -6.72974e-40 -1.1966706e-38 -2.7648084e-38 -3.788052e-38 -0.067723416 -1.2384091e-38 8.688153e-39
-0.1251002 1.1498415e-38 -1.5740793e-38 5.5199904e-38 9.066763e-39 -5.616568e-38 -3.6815788e-38 -1.7289275e-38
0.02978285 4.4206792e-17 -0.28306627 1.0937971e-38 9.895315e-39 -0.40089047 -1.3194209e-38 2.3340595e-38
-0.024016492 -5.62687e-38 -0.009864233 -1.2901808e-38 5.548558e-39 -0.36915115 -0.36003068 4.5369e-38
-5.3880744e-38 4.4043264e-07 1.108459e-38 9.880533e-39 -0.11447883 1.3316643e-38 2.2311424e-38 -0.33980173
9.245886e-39 1.9161201e-38 1.0582282e-38 1.7419019e-38 -3.356803e-39 9.364609e-39 2.88308e-38 -1.0429444e-38
2.813005e-34 -0.26031423 -1.0389346e-38 1.3839603e-38 1.5984526e-38 3.4161386e-38 8.61778e-40 -0.016512496
-0.13328604 5.1862727e-09 -4.644061e-39 0.080007054 0.027462836 -1.2628898e-38 3.420354e-39 2.1348585e-38
1.160696e-39 -0.09610132 -1.9265515e-38 -0.13248904 0.030116081 -1.1637305e-38 1.311903e-39 5.334604e-38
-0.117677696 -4.899328e-39 -2.0490868e-38 9.557455e-39 -0.0010390467 0.014791036 1.086752e-39 -0.28493646
6.287543e-38 -0.30700925 -2.7211072e-38 1.9736478e-38 -0.057322007 -0.017649848 3.5458613e-38 2.3973364e-38
1.2036672e-38 -2.4158313e-38 -1.3594809e-38 -0.010996528 2.407108e-38 2.974197e-39 0.0043704 -3.7771014e-38
6.06434e-39 -1.2672053e-38 -3.1004e-40 -5.70938e-38 1.0987689e-38 1.136489e-38 -1.7237908e-38 1.2430305e-38
-1.8348417e-38 -0.30979472 -4.2022674e-38 1.3601254e-13 -1.0620238e-38 -0.0088873925 1.1191731e-38 -9.52993e-39
-1.1599729e-38 1.2762149e-38 0.044328965 -0.06347934 -1.085529e-38 -0.0015887506 -0.22038941 -8.334894e-39
1.1447751e-38 -1.2368034e-38 -2.4464648e-38 -0.0006641511 -4.1732103e-38 2.205562e-38 -2.2973293e-38 1.075331e-38
-8.403784e-39 -0.014986021 5.476176e-39 -2.0226922e-38 -2.3206024e-38 -0.005141935 -6.189784e-38 2.225427e-38
-0.14613204 -0.087680355 -1.4406803e-38 2.622711e-38 1.8017695e-38 -5.978131e-39 2.9373604e-38 -0.024997579
00000000: f41f 2c01 cc54 16bd 666b a0be 67f7 7700
00000010: 7b7c 9200 255e debe c5b7 6800 58f6 8300
00000020: 2fe0 0ebe 18d6 7600 7eca 97bc a21a 9fbb
00000030: 9ed7 1a00 9d57 c3be 15bc f2be 924c 6300
00000040: 680f 0481 6df5 7b00 9b8b 01bd 2c63 9580
00000050: ae0d ab3b d2cd 1f80 87f2 9d00 b397 d9be
00000060: 1c9a ffbc 40b4 4780 ad92 3285 e092 b901
00000070: 72db 8fbd d1c1 ac81 65cf 7b80 a92a 7200
00000080: b00a 1681 c275 b7be 8b22 8e80 000c 6901
00000090: d54c 1f80 c682 2301 2e62 6b00 3df8 863b
000000a0: 1fab c5b3 5f7a 4080 e369 5c81 4134 25be
000000b0: 0905 b3bd ff73 1201 ed42 2a00 4cc7 c400
000000c0: 2699 a581 4318 20bd 841c 0281 3125 44bb
000000d0: 99c6 e43c 880b a200 b368 4500 da02 af81
000000e0: 63ee a3be a0f5 8600 b2ae 9500 38d2 0c80
000000f0: e3e1 1180 eaca 8ebb c71a 74bc f4eb bbbe
00000100: 2bd8 ea00 063f c6be 4b24 9681 eeb2 2281
00000110: ef90 153d 998f 1db9 b91a 8500 d1f9 1800
00000120: e4bb 6d01 905c ad00 e5b3 15be 8e6a 0dba
00000130: 9ab6 8100 5098 4e00 5723 9a80 ca43 bd80
00000140: 5110 6f01 4b65 ca00 36fc 0781 a93c 8500
00000150: f36e 8c80 19dd 56ae 5250 3e80 d13b d600
00000160: 93fa a680 70b9 9cbe fe5a 4201 5604 3780
00000170: 9c8e 8101 b0a8 3d3c 6742 e73c 3b4a 3900
00000180: 4095 5e00 c932 f100 bdf8 e031 5ef4 5b3c
00000190: c0a4 b180 9b61 b8bb f95e 8f3c 6033 ae36
000001a0: 7444 ac80 5b5f da00 c87e 6d81 192f 4580
000001b0: c88e 4980 4170 3e80 ee6b 7200 3918 8a00
000001c0: 85aa 0601 fa53 0780 4f4e 8280 ce87 1681
000001d0: bd3d 4e81 93b2 8abd cfd9 8680 099b 5e00
000001e0: 441a 00be e734 7d00 ed66 ab80 b844 9601
000001f0: 72ba 6200 c4e5 9881 b871 4881 7743 bc80
00000200: 2afb f33c 2bde 4b24 10ee 90be 9d1a 7700
00000210: 1dc0 6b00 8441 cdbe 16ac 8f80 1528 fe00
00000220: 3cbe c4bc 902d 9981 989d 21bc fe7c 8c80
00000230: 1f6b 3c00 6101 bdbe f155 b8be 2803 7701
00000240: 66ad 9281 9a74 ec34 54b3 7800 e896 6b00
00000250: e073 eabd 6201 9100 2cf3 f200 7efa adbe
00000260: c5ad 6400 a2a5 d000 193b 7300 23ad bd00
00000270: 678d 2480 b8f8 6500 45f8 1c01 0c91 7180
00000280: cdf4 ba07 e847 85be 4521 7180 2fb3 9600
00000290: 5b0e ae00 06fe 3901 4962 0900 3745 87bc
000002a0: 237c 08be f032 b231 c191 3280 bdda a33d
000002b0: bef9 e03c 3b84 8980 8e3e 2500 2b77 e800
000002c0: 8ca3 0c00 c5d0 c4bd 6bc8 d180 35ab 07be
000002d0: 00b6 f63c 12b8 7e80 0d49 0e00 c438 9101
000002e0: 0101 f1bd 5559 3580 3420 df80 4c12 6800
000002f0: 9f30 88ba 1a56 723c 6cd5 0b00 31e3 91be
00000300: c829 ab01 5130 9dbe b326 1481 45e9 d600
00000310: 7bca 6abd 6a96 90bc 180e 4101 fe85 0201
00000320: 5811 8300 c687 0381 cc08 9480 c82a 34bc
00000330: 300e 0301 da62 2000 9335 8f3b 1ca5 4d81
00000340: ea08 4200 87fc 8980 4460 0380 926c 9b81
00000350: 35a5 7700 b1c0 7b00 46b4 bb80 a25a 8700
00000360: eccb c780 6a9d 9ebe 0fcb 6481 f222 192a
00000370: e7a4 7380 6d9c 11bc fedd 7900 91c5 6780
00000380: 534f 7e80 aef7 8a00 4a92 353d 7501 82bd
00000390: 2234 7680 a03d d0ba c3ad 61be 4bc2 5a80
000003a0: aca7 7c00 0cad 8680 be32 0581 6d1a 2eba
000003b0: 1036 6381 182a f000 3228 fa80 da17 7500
000003c0: 5582 5b80 ee87 75bc 5aa1 3b00 6e40 dc80
000003d0: f4b0 fc80 ad7d a8bb 8080 a881 da53 f200
000003e0: a3a3 15be c291 b3bd 4ee0 9c80 42cb 0e01
000003f0: 0132 c400 9918 4180 d4ec 1f01 b9c7 ccbc

net.4.bias f4 [32]
-0.73556316 -0.5633228 -0.4837233 -0.3133825 -0.58387506 -0.5255425 -0.37093794 -0.13341221
-0.5757004 -0.57599103 -0.33266366 -0.22153719 -0.3521113 -0.29311144 -0.28708312 -0.025124967
-0.60598236 -0.54840565 -0.39628834 -0.27713242 -0.5333231 -0.32393903 -0.14212823 -0.12909067
-0.5409135 -0.3174625 -0.32924533 -0.16570547 -0.47176918 -0.31990376 -0.15503012 0.28492674
00000000: de4d 3cbf ec35 10bf 95aa f7be ac73 a0be
00000010: d678 15bf f489 06bf 94eb bdbe 369d 08be
00000020: 1a61 13bf 2674 13bf e452 aabe a5da 62be
00000030: ef47 b4be b412 96be 8ffc 92be e0d2 cdbc
00000040: a921 1bbf 5064 0cbf 4ee6 cabe 4de4 8dbe
00000050: dd87 08bf 56db a5be 108a 11be 5830 04be
00000060: 4f79 0abf 728a a2be d892 a8be b2ae 29be
00000070: bb8b f1be 6dca a3be 37c0 1ebe ebe1 913e
